checkpoints/model_epoch_3.pth (torch, 4866 bytes, 5 tensors)

i2h.weight f4 [16, 19]
00000000: dd97 e0be 3c91 8f3d 7dab 0bbe da45 673d
00000010: de30 95be 54a9 1abe 1200 d1bd a41c 38be
00000020: 36e3 fd3e 3083 7ebd 4611 f2be 3cd5 3dc0
00000030: 86b1 83bd 24d7 2e3e fec3 63be 73b7 19be
00000040: e605 e5be e76b 9a3e b6e9 7bbf db2b 803e
00000050: 4b6f 91be dca2 163f 0d88 67be 2eb1 313e
00000060: 5674 83bd 4d17 2a3e b11b 133e 1afb 07bf
00000070: ae62 99bd 4e05 1d3f bf55 4e40 e23d d4bd
00000080: 6124 69be dc3c 293e 238e a0be 4805 943e
00000090: e713 1dbd a0d7 6c3f 4ff6 783e f995 8dbd
000000a0: dbae da3e ba2c c0bd 4fd0 b73d 14ea fc3d
000000b0: 81d6 463e d033 af3d 16ab e7bd ec77 f63d
000000c0: a4d0 2b3f 4b52 3140 a5e6 113e 51a4 9dbd
000000d0: 17ce 7e3d 29cf f4be a5e3 7e3e a1a8 493d
000000e0: 98b2 353f 7d97 93be ec99 7c3e d8e0 3c3e
000000f0: 1b90 7d3d aabf 843c fafd 88be b394 32be
00000100: f93e 3bbe 8687 d23d 151a b4bc ebcb b8be
00000110: 313d 43c0 1949 2d3d 4d81 b5bd 8d9d 493e
00000120: 0616 41bd cdb3 a5be d5ff 203e 436f 27bf
00000130: e67c d63d 25bb dcbd 4b14 033d 3207 0a3c
00000140: 9562 fe3d e5db 31be 6198 babd 826d 97bd
00000150: 2c3d fbbd c30b 243e 7cc8 6d3e 1646 2440
00000160: a58a 9cbe 458f 86be b274 043e 956c a53d
00000170: 5766 713e 6dd4 41be e5ee 683f 7067 8e3e
00000180: c7f6 103e a30e b73e 0add 0ebe 4df0 863e
00000190: ef72 efbc 55e1 b13e f85b 8d3d 0b38 acbd
000001a0: c71b 7fbc 4b7e 1a3e d98f 2c40 4339 163e
000001b0: 88c0 70be e5bc a53d 2cfa 11be 087e 073e
000001c0: 5f76 f73d c521 1b3f 88e3 a73e 951e 3bbe
000001d0: 118b d9bd ffb0 a4bd ae23 4f3d 7921 f3bd
000001e0: 5813 063e 3dad 493e 487b 96be 292e d6bd
000001f0: 1f04 bcbc 6f0b 2f40 ae8d 84bd 80e0 033b
00000200: d541 3a3e bed0 76bd 36a0 fe3d 6c2f d3bd
00000210: 3c4b 6a3f 5d69 2d3e 913b 7f3e 23c6 1abe
00000220: 0036 003e 1e69 9a3e 0240 403e f483 f03b
00000230: a18e ea3d 65ed 08be 683b d8bd f0bc 22be
00000240: 155d c53f 3888 8d3e 6cb6 70bd 8cf9 5dbc
00000250: 655d e83e af10 543e 71f8 163e f07a 2e3f
00000260: 6fe1 d73e 64c9 b4bd 9316 003e 1be4 83be
00000270: b6b7 883e 11e7 bfbd dc9e 1e3e 62fe babd
00000280: 5172 69bd 8da3 a83d 5d57 043e 9c14 3640
00000290: 3e37 88be dbf8 9c3d ac9e a5bd 64f5 9bbe
000002a0: 853f 9d3e c44f f9bd 2ca2 303f a099 dd3e
000002b0: fa87 d5bd 9fa3 d33e 8859 f2bc c369 633d
000002c0: 7628 0e3d e812 0d3e e03c 0c3e 1093 38be
000002d0: c07e 49be b837 4b3e f04e 2a40 83c1 373e
000002e0: 0e43 cc3d 9d59 253e 593a 3ebe 1960 693d
000002f0: a95e ce3d 191b 483f 2d7c 01be f7c2 083e
00000300: 8956 65be 91d3 093d a733 333c eb12 9f3d
00000310: 78d8 013e 815a 0c3e 61fc 013d c6bf 3abe
00000320: ffd4 6fbd e418 26c0 2a31 8f3e fd16 9a3c
00000330: d747 5cbd 7fe6 4bbe 90dc c1bc bc0d 453d
00000340: 0694 0fbf b27c bebe 8334 563e 8697 98bd
00000350: d0f6 8f3e 83dd 0ebd 4204 5ebe d96e 713d
00000360: b7a8 06be 0b51 af3d 6fb2 d43d fcab a9be
00000370: e3c3 31c0 f15f b33e 1dd2 a6bc 47f8 11be
00000380: 8f2e 6a3e 6d01 1dbd e4f9 d33c c6b6 0dbf
00000390: 62ce 983e 6a5d d0bd 7bd3 923e 0515 24be
000003a0: fd35 c4bd c7c0 a5bc b86c 313e 7579 ee3d
000003b0: d4a4 d2bd e2d9 2e3e c51a ab3e c054 82bf
000003c0: 7177 90be 64f2 01be 10f4 243e 5ac2 073d
000003d0: c07c 8a3e 81ed acbd ac86 b2be 8e94 40bf
000003e0: 31ed 763e 0cb6 78be 70c1 01bc 697f 043d
000003f0: 9701 83bd c1b8 bbbe 53a6 6bbe 086d fe3e
-0.43865862 0.07010123 -0.13639636 0.0564631 -0.29138845 -0.15103656 -0.102050915 -0.17979676
0.4958741 -0.06213683 -0.47278804 -2.9661398 -0.06430344 0.17074257 -0.22242734 -0.15011387
-0.44731063 0.30160448 -0.9840349 0.2503346 -0.28405222 0.58842254 -0.22610493 0.17352745
-0.06418674 0.16610451 0.14366032 -0.53117526 -0.07489525 0.6133622 3.2239835 -0.10363366
-0.22767784 0.16527122 -0.31358442 0.2891028 -0.03834906 0.9251652 0.2431271 -0.06913371
0.4271153 -0.09383531 0.089752786 0.12349334 0.19417764 0.08554804 -0.11311929 0.12034592
0.67115235 2.7706478 0.1424814 -0.076973565 0.06220826 -0.478143 0.24891527 0.049233083
0.7097564 -0.28826514 0.24668092 0.18445146 0.061905008 0.016204674 -0.2675627 -0.17439537
-0.18285741 0.10279755 -0.021985093 -0.36093077 -3.0506098 0.04230604 -0.08862553 0.19689007
-0.047140144 -0.3236374 0.15722592 -0.65404147 0.10473041 -0.107778825 0.032001775 0.008424567
0.12421147 -0.1736904 -0.09111095 -0.07393934 -0.12267527 0.16020112 0.2322101 2.5667777
-0.30574527 -0.2628118 0.1293514 0.08077351 0.23574196 -0.1892869 0.90989524 0.27813292
0.14156638 0.35753354 -0.13951507 0.2635521 -0.02922961 0.34742227 0.06902307 -0.08409127
-0.0155705875 0.1508724 2.6962798 0.14670281 -0.23510945 0.080926694 -0.14255589 0.13231671
0.12083124 0.60598403 0.3279078 -0.18273385 -0.10622228 -0.08041572 0.050571136 -0.11871619
0.13093317 0.19694991 -0.2939093 -0.10458023 -0.022951184 2.7350729 -0.06472336 0.0020122826
0.18189175 -0.060257666 0.124329016 -0.103117794 0.9152105 0.16934724 0.24925067 -0.15114646
0.125206 0.30158323 0.18774417 0.007339949 0.114529856 -0.13371809 -0.10558206 -0.15892386
1.5419031 0.2764299 -0.05876772 -0.013548266 0.45383754 0.2070949 0.1474321 0.6815634
0.4216418 -0.08827475 0.12508611 -0.25759968 0.2670266 -0.09370244 0.15490288 -0.09130551
-0.056993786 0.0823432 0.12923951 2.845008 -0.26604646 0.07664653 -0.08086905 -0.30460656
0.30712524 -0.12173417 0.68997455 0.4328127 -0.10426326 0.4133577 -0.029583707 0.055520784
0.034706555 0.13776743 0.13695097 -0.1802485 -0.19677258 0.19845474 2.661068 0.17944913
0.09973727 0.16147466 -0.18576945 0.05697641 0.10076649 0.7816635 -0.12645026 0.13355623
-0.22396292 0.03364903 0.010937608 0.0776728 0.12680233 0.137064 0.031734828 -0.18237218
-0.05855274 -2.5952692 0.27967197 0.01880979 -0.05377945 -0.19912146 -0.023664743 0.0481088
-0.5608524 -0.3720451 0.20918469 -0.07450776 0.2811799 -0.03487922 -0.21681312 0.058943603
-0.13150297 0.085603796 0.10385596 -0.33139026 -2.777581 0.35034135 -0.020363862 -0.14254867
0.22869323 -0.038331438 0.025875993 -0.55357015 0.29844958 -0.10174067 0.28676972 -0.16023643
-0.0958061 -0.020233525 0.17326629 0.1164426 -0.10285345 0.17075303 0.3341886 -1.0182114
-0.28216127 -0.12690121 0.16108727 0.033144332 0.27048302 -0.08443738 -0.3486837 -0.75226676
0.24113919 -0.24288195 -0.007919654 0.03234807 -0.063967876 -0.36664394 -0.23012666 0.4969256

h2h.weight f4 [16, 16]
00000000: 5278 b93d c1d1 80be e2eb 4f3d a541 573e
00000010: b446 a3bd 8e87 263d 9325 0fbe 41f9 7bbe
00000020: 3209 03be 5f1e 92be ddf7 cb3d 5ac3 d03c
00000030: 4e88 4abd c020 16be 9ae1 363c d5dc b73e
00000040: 3e3a 023d 88f5 87bd 8bb7 03be 9298 b9bd
00000050: ff74 d93d 7dcd 3bbd c283 713e c232 3f3e
00000060: c7d4 aa3e 8f43 793e ba45 82be 26d5 cdbe
00000070: 7f94 bfbd e651 20be 57bf 5ebd dd73 cebe
00000080: 8f4e 2ebe 65c4 22bd b4bd 7c3d 089a 3d3e
00000090: 20cf 533d 0c9e c13d 4497 a3bc 804e 8cbd
000000a0: 9669 5b3e df23 a63e 1412 70bd 9624 3bbe
000000b0: 5909 cd3d 386e 333d 831c 413e 37ad 9dbe
000000c0: ae11 ab3e d65b 9b3d cdcc f3bc 6ba5 a53e
000000d0: 5dfb 02be ea9e 00be b20b ae3d cba9 16be
000000e0: 5142 1fbe 461e 99be 916c 413e 7c81 cd3d
000000f0: 568a e3bd 6e35 6b3e efe8 3bbd 1891 e43e
00000100: 9b01 b2bd 4ee6 a4bc 4186 7c3e dc65 5d3d
00000110: e043 8c3d dbbf 903e 7d84 4a3c f48c febd
00000120: 6524 d5bd 9544 05bc 317f 90be 5fb5 2d3e
00000130: ca09 eebd 0154 36be 7d08 fcbd 1eac 1dbe
00000140: 3fe4 1abd 12af 17be 9fc4 143e 55d0 1ebe
00000150: c2d0 c93d 7276 b53c 9ff3 803d 998e 403d
00000160: 21da 163e 58e0 3b3e c36a 8dbe f508 86bd
00000170: 8037 20bd 0a4e 7e3e b26c 0a3e aa8b 0dbe
00000180: a4ed 84be 0fed 883e beba 6bbd 7216 a6be
00000190: 25e3 7f3e 49f1 3cbe 7531 133e 2b91 863e
000001a0: 2008 583e 02f7 553e 3787 efbc ad65 063e
000001b0: f6fa 423d d5b4 8fbc 1066 1e3e 20b9 16be
000001c0: 88f4 b23e 6090 85be 8d46 1dbd c681 413e
000001d0: 114a 433e 69c0 35bd e9c0 e8be b4d2 223d
000001e0: b973 a4be 2e48 d6be 645b 563e 6167 f33e
000001f0: e8fe d1be 0948 0a3d 8b53 92be aa8a 163d
00000200: a0fa b9bd 1b11 a73c 24c8 343e c977 b43c
00000210: 073a 593e b22f 853e b34d 903e 2b22 f0bd
00000220: 2b4d 79bd 87c8 833e a85b 113d dd26 e7bd
00000230: f83e 03be 514b 6b3e 0c8a 9e3d bfe7 b93d
00000240: 2141 c03d 0c27 673e 0fe4 0dbe 607b f6bd
00000250: 8790 933d 6b72 9c3b ae44 183e fd2d b53e
00000260: 9177 4d3e cf2c 2c3d 213a 03be 7cba 97be
00000270: 59ba b63c 0af7 87bd fba6 a63e e4ee f1bd
00000280: 965e 3a3e b779 d13d b612 99bb 83f2 e23d
00000290: ef2a 27be e681 67be a1f0 88bc a5a7 15be
000002a0: cc2e f2bd e438 32be db17 fd3d 48e4 363e
000002b0: 1934 293e a898 57be a49e 80be a57b 7b3d
000002c0: 5c0e 36be 97ca eabd ed48 963d dbb3 4e3e
000002d0: e9bf cabd f01a 65be b6a2 6abd 1dd1 863d
000002e0: dd33 7fbd 68cd 3cbe 3ed6 553e 43f8 70be
000002f0: d64c b23d faa2 53bd 12d1 a43b a1b6 713e
00000300: 1e90 b6be a7ff 473d 0b4b c63c d9f1 b5be
00000310: 70a3 19be 9ca5 973e d642 d33e 4810 3abd
00000320: c4ed d23e dc1d ec3d e347 6abd 0a8f f6bd
00000330: 9ad6 053e a9de 13be fec6 c53e 1ad7 433b
00000340: 9881 923e d162 c0be d26b fa3c bc1c 283e
00000350: 8c32 a9be cc28 36be 76a5 a9bd 5c91 ff3d
00000360: 24f6 efbe 9552 ee3b fe53 21be b36f 473d
00000370: 5750 813e 0b61 94bd 7843 6c3e 79cf 143e
00000380: c351 65be bd7f 8c3e 4129 653e a14a 903d
00000390: ca0b 143e f44a bc3e 887d 7dbd b4cb 873e
000003a0: b37b ca3d 2661 2f3e 88c7 a83d 67e0 bbbd
000003b0: 2146 52be ff11 0cbe 145e 063e 335d 62be
000003c0: eb3d 08be c5e5 7fbe bd46 91be 2604 573e
000003d0: 488b 2d3d 7471 70be c58d 94be 80c2 053e
000003e0: cf15 aabe 1401 5dbe a10d 463e d180 433e
000003f0: c34f 263e 9722 193e 1253 72bb fdde 033e
0.090561524 -0.2516003 0.050762065 0.21021135 -0.0797247 0.04065662 -0.13979177 -0.24606802
-0.12796476 -0.28538796 0.099593855 0.025483776 -0.049446397 -0.1466093 0.011162186 0.3591067
0.031793825 -0.06638628 -0.12862985 -0.090623036 0.10618018 -0.045850266 0.23585418 0.18671706
0.3336546 0.24342178 -0.25443822 -0.40201682 -0.09354495 -0.15656242 -0.054381695 -0.40322772
-0.17022155 -0.039738078 0.061704352 0.1851579 0.0517112 0.09453973 -0.01996959 -0.0685091
0.21426997 0.32449242 -0.05861099 -0.18275675 0.100115485 0.043806285 0.18858533 -0.30796215
0.33411926 0.07585876 -0.029760743 0.32352766 -0.127912 -0.12560621 0.084983245 -0.14713208
-0.15552641 -0.2990591 0.18889071 0.10034463 -0.1111037 0.229696 -0.04587644 0.44641948
-0.086917125 -0.02012935 0.24660589 0.05405222 0.06848884 0.28271374 0.012360689 -0.124292284
-0.10407332 -0.008134027 -0.2822204 0.16963719 -0.11622961 -0.17805482 -0.123063065 -0.15397689
-0.03781533 -0.14812878 0.1452813 -0.1550916 0.098542705 0.022151206 0.06296467 0.04701099
0.14731647 0.18347299 -0.27620515 -0.06544677 -0.03911543 0.24834457 0.13518026 -0.13822809
-0.25962555 0.2674336 -0.057551138 -0.32439 0.24988993 -0.18451418 0.14374335 0.2628263
0.2109685 0.20895007 -0.02923928 0.13124724 0.047602616 -0.017542282 0.15468621 -0.14719057
0.34952188 -0.26086712 -0.03839736 0.18897161 0.19071223 -0.04437295 -0.4545968 0.039751723
-0.3211954 -0.41851944 0.209333 0.4753981 -0.4101479 0.033760104 -0.28579363 0.036753334
-0.09081006 0.020393899 0.17654473 0.022029774 0.21213542 0.2601295 0.2818428 -0.11725267
-0.06086461 0.25738928 0.0354878 -0.112867095 -0.1281699 0.2297795 0.07741174 0.09077405
0.09387422 0.22573489 -0.13856529 -0.12035251 0.07205301 0.004774382 0.14869949 0.3538665
0.20065142 0.04203492 -0.12815143 -0.29634464 0.022305654 -0.06638916 0.3254927 -0.11813143
0.18200144 0.102282934 -0.00467142 0.11081412 -0.16324972 -0.22608146 -0.016716303 -0.14614733
-0.11825332 -0.17404515 0.12358066 0.1786052 0.1652378 -0.21054327 -0.25121033 0.061397213
-0.17778915 -0.11464422 0.07338128 0.20185797 -0.09899885 -0.22373557 -0.05728408 0.06582854
-0.06230532 -0.18437731 0.20882508 -0.23532204 0.087060615 -0.0516691 0.005029806 0.23604824
-0.35656828 0.048827793 0.024205705 -0.35536078 -0.15003753 0.29618537 0.4126193 -0.045425683
0.41197026 0.11529133 -0.057197463 -0.12039001 0.13070145 -0.14440407 0.38628381 0.002988285
0.28614497 -0.3757539 0.03056899 0.16417211 -0.33046377 -0.17789 -0.08283512 0.12478897
-0.46867478 0.007273028 -0.15754697 0.04869051 0.25256607 -0.07245072 0.23072612 0.1453227
-0.22394471 0.27441207 0.22379018 0.07045484 0.14457622 0.36775935 -0.061887294 0.265226
0.09886875 0.17126903 0.082411826 -0.09173661 -0.20534565 -0.1367874 0.13121825 -0.22105865
-0.1330487 -0.24989994 -0.28374282 0.20997676 0.042369157 -0.23480779 -0.29014412 0.13062477
-0.33219764 -0.21582443 0.19341137 0.19092108 0.16241364 0.14954601 -0.0036975783 0.12878032

h2h.bias f4 [16]
00000000: ffe6 4ebd ca9f 673e f8ea 203c 7f63 713e
00000010: 8819 9a3d 4ae0 c83d adb3 77bc b170 f3bd
00000020: 6ad6 1ebc c47a a53d 3d2f f4bc b686 56bd
00000030: 5645 07be 3f17 3e3e 4886 94be a0c7 413e
-0.050513264 0.22619548 0.009821646 0.23573111 0.07524401 0.09808405 -0.015118522 -0.118867286
-0.009694675 0.08080056 -0.029807681 -0.052374564 -0.13210043 0.18563555 -0.29008698 0.18923807

h2o.weight f4 [2, 16]
00000000: d086 023f 2bdd 1ebf 4b9a 9dbe 8337 ba3e
00000010: 0e9c 51be c6d3 9dbe aa85 ffbe 0ed7 c0bd
00000020: d020 a7be 688a 12bf 46ba 9d3e 453b 103f
00000030: 32a1 26be 5f43 bb3e 533b 36bf 27ae 1d3f
00000040: 24f8 2ebf 553d 3e3f 0771 0d3f f81f debe
00000050: 9a92 103f ebca db3e 975c a33e 4284 e8bd
00000060: ebda ce3e 588f ae3e bbee c6be b804 84be
00000070: 0007 8c3e 5e86 eabe 7a4f 3b3f 32be 75be
0.5098696 -0.62056226 -0.3078178 0.36370477 -0.20469686 -0.30825633 -0.49906665 -0.094160184
-0.3264222 -0.5724244 0.30806178 0.5634044 -0.16272429 0.36574838 -0.7118427 0.6159386
-0.6834738 0.74312335 0.5525059 -0.43383765 0.56473696 0.42928252 0.31906578 -0.11353351
0.40401396 0.34093738 -0.38854012 -0.2578485 0.2734909 -0.4580564 0.73168147 -0.23998335

h2o.bias f4 [2]
00000000: 3738 103e d731 203e
0.14083944 0.15644012
