checkpoints/model_epoch_6.pth (torch, 4866 bytes, 5 tensors)

i2h.weight f4 [16, 19]
0	0xbe8397e0	-0.2570181
1	0xbbe98fc1	-0.0071277325
2	0xbdd5be35	-0.1043667
3	0x3e0abe10	0.13549066
4	0xbe719abb	-0.23594181
5	0xbdbcf840	-0.092270374
6	0xbe194ac6	-0.1496993
7	0xbe7bbd20	-0.24583864
8	0x3f01109a	0.50415957
9	0xbd7e8330	-0.06213683
10	0xbefc6b6a	-0.493007
11	0xc08a60ad	-4.3243012
12	0xbe54fa61	-0.20798637
13	0x3e937941	0.28803447
14	0xbe7cf356	-0.247022
15	0xbe79b3ef	-0.24385045
16	0xbee1fc67	-0.4413788
17	0x3ea56c3c	0.3230914
18	0xbfbe9543	-1.4889301
19	0x3e7d9a0a	0.24765792
20	0xbe8c233d	-0.27370635
21	0x3f8c5dcd	1.0966126
22	0xbe301ba9	-0.17198052
23	0x3e04261e	0.12905166
24	0xbdd5a82d	-0.104324676
25	0x3e3d965a	0.18514386
26	0x3dc15fb8	0.09442085
27	0xbf18843d	-0.5957678
28	0xbd9962ae	-0.07489525
29	0x3f6dd2b2	0.9289962
30	0x408afab1	4.343102
31	0xba83d711	-0.0010058602
32	0xbe7804a9	-0.24220528
33	0x3df9d671	0.121991046
34	0xbeab4f35	-0.33458868
35	0x3e9c83bf	0.30569264
36	0xbce73f0a	-0.028228302
37	0x3fa84933	1.3147339
38	0x3e0d4aaa	0.13798013
39	0xbba2a12a	-0.00496306
40	0x3ef21929	0.4728482
41	0xbccc21e1	-0.024918498
42	0x3daa55f9	0.08317179
43	0x3de259cb	0.11052283
44	0x3e59fbb8	0.2128743
45	0x3dd042b4	0.101689726
46	0xbe1d7f2e	-0.15380546
47	0x3df677ec	0.12034592
48	0x3f6d4641	0.92685324
49	0x408acaf0	4.3372726
50	0x3e853205	0.26014724
51	0xbd12d8ae	-0.035851173
52	0x3c8d023f	0.017212985
53	0xbf2160f4	-0.63038564
54	0x3e77685e	0.24160907
55	0x3dc7696d	0.09736905
56	0x3f981b5f	1.1883353
57	0xbebaac79	-0.3645971
58	0x3e9ddd8b	0.30833086
59	0x3eee4353	0.4653574
60	0x3e1a785e	0.15084979
61	0xbc7020ad	-0.014656228
62	0xbe8e5034	-0.27795565
63	0xbe18103f	-0.14849947
64	0xbe7fe0e5	-0.24988134
65	0x3e265771	0.16244294
66	0xbcb41a15	-0.021985093
67	0xbe611eee	-0.21984455
68	0xc08f1461	-4.4712377
69	0x3e1f0b36	0.1553162
70	0xbe349882	-0.17636302
71	0x3e53a1fd	0.20667262
72	0xbe1dd428	-0.15412962
73	0xbe9e0f40	-0.3087101
74	0x3df99a4b	0.12187632
75	0xbf9a732c	-1.2066398
76	0xbc7bef46	-0.015376871
77	0x3cb70575	0.02234147
78	0xbd675daf	-0.056485828
79	0x3e2537d7	0.16134582
80	0x3dd5ccff	0.104394905
81	0xbe5c1558	-0.21492517
82	0xbddf0a51	-0.108906396
83	0xbdae4717	-0.08509653
84	0xbddf59f4	-0.10905829
85	0x3e240bc3	0.16020112
86	0x3e756df3	0.23967724
87	0x408d38f5	4.413203
88	0xbeb62fac	-0.35583246
89	0xbe9e5b34	-0.30928957
90	0x3de75736	0.11295931
91	0x3d34d92d	0.044152427
92	0x3e4f7cc8	0.20262444
93	0xbe4813fc	-0.19538873
94	0x3fbc0ecf	1.4692019
95	0x3e6177cc	0.22018355
96	0x3e5d10c0	0.21588421
97	0x3eaedbd0	0.3415208
98	0xbdc6caf2	-0.097066775
99	0x3e8c54b5	0.27408376
100	0xbd9827f5	-0.07429496
101	0x3ec72b64	0.38900292
102	0x3dcde545	0.10053495
103	0xbc555e6c	-0.013023
104	0xbc7f1bc7	-0.0155705875
105	0x3e6d750f	0.23189186
106	0x40943276	4.63116
107	0x3e6df941	0.23239614
108	0xbeb13b1c	-0.3461541
109	0x3da97e69	0.08276064
110	0xbe37e863	-0.17959742
111	0x3dc5b2f4	0.09653273
112	0x3dcf9c5e	0.101372465
113	0x3fa50475	1.2891985
114	0x3ecbddf4	0.39817774
115	0xbe6f8f95	-0.23394616
116	0xbe6d62e8	-0.23182261
117	0xbe787d13	-0.24266462
118	0x3c79e91a	0.01525333
119	0xbe043870	-0.12912154
120	0x3e10c00b	0.14135759
121	0x3e98d141	0.29847148
122	0xbea221ad	-0.31666318
123	0xbdd62e29	-0.10458023
124	0xbe2ed83f	-0.17074679
125	0x40860718	4.188366
126	0xbdde09cf	-0.108417146
127	0x3d044cd0	0.032299817
128	0x3e73e156	0.23816428
129	0xbd9b4cba	-0.07582994
130	0x3e0b8ce7	0.13627969
131	0xbdb26617	-0.08710878
132	0x3fb28c37	1.394904
133	0x3e61b1dc	0.22040504
134	0x3e63850f	0.22218727
135	0xbe80178c	-0.25017965
136	0x3de4283b	0.11140486
137	0x3eb442a8	0.35207105
138	0x3e85d226	0.26136893
139	0xbcbd2f71	-0.02309391
140	0x3e567057	0.20941292
141	0xbe38f381	-0.1806164
142	0xbdd83b68	-0.10558206
143	0xbe927033	-0.28601226
144	0x408554eb	4.166616
145	0x3f0957b5	0.53649455
146	0xbdea995b	-0.114550315
147	0x3cc93fa6	0.024566483
148	0x3f2d51fc	0.67703223
149	0x3e344f67	0.17608415
150	0x3e5febce	0.21867296
151	0x3fce6658	1.6124983
152	0x3ef4a81c	0.47784507
153	0xbe31028d	-0.1728613
154	0x3dc8d2b4	0.098058134
155	0xbe980c1b	-0.29696736
156	0x3e6c21b0	0.23059726
157	0xbd61d238	-0.05513212
158	0x3e0c1889	0.13681234
159	0xbd539f51	-0.051665608
160	0xbb3aaf8f	-0.0028485989
161	0x3da8a38d	0.0823432
162	0x3d7e77df	0.062126037
163	0x4083d540	4.1197815
164	0xbedd3167	-0.43201753
165	0x3e57501b	0.21026652
166	0xbd64b46d	-0.05583613
167	0xbec4c4de	-0.38431448
168	0x3e974e0d	0.29551736
169	0xbdca2523	-0.098703645
170	0x3f9c9e48	1.2235804
171	0x3ecd5384	0.4010278
172	0xbe445271	-0.19172074
173	0x3f0a1816	0.53943
174	0xbd2a3ca0	-0.041561723
175	0x3d0852e9	0.033282194
176	0xbbb70878	-0.0055857264
177	0x3e182d85	0.14861114
178	0x3e50a829	0.20376648
179	0xbdfc5cd8	-0.12322396
180	0xbe497ec0	-0.19677258
181	0x3e6aed48	0.22942078
182	0x409131e2	4.537339
183	0x3e99181a	0.299012
184	0x3de89714	0.11356941
185	0x3e32089b	0.17386095
186	0xbe2a9c88	-0.16661274
187	0x3d17e651	0.03708488
188	0x3dbf82d1	0.09351123
189	0x3fadf884	1.3591466
190	0xbe004625	-0.12526758
191	0x3e448c5d	0.1919417
192	0xbe6a2a8b	-0.22867791
193	0x3d8c411a	0.06848355
194	0x3d0ba85c	0.034096107
195	0x3dc7ebc4	0.097617656
196	0x3dd819d2	0.105518
197	0x3e358a28	0.17728484
198	0xbcc220cf	-0.023697285
199	0xbe3abfc6	-0.18237218
200	0xbdc959f4	-0.0983161
201	0xc0939074	-4.6113834
202	0x3ec55c32	0.38546902
203	0xbd40e81b	-0.047096353
204	0xbcc7686c	-0.024341784
205	0xbeb3aa02	-0.35090643
206	0xbc067fdb	-0.008209194
207	0x3d2ac83c	0.041694865
208	0xbf9f8a26	-1.2464035
209	0xbf0a8bee	-0.54119766
210	0x3e99c12c	0.3003019
211	0xbd1d7c47	-0.0384486
212	0x3ed92fb2	0.424192
213	0x3d0ea26e	0.034822874
214	0xbe8f9161	-0.28040603
215	0x3d5d11b8	0.053971976
216	0xbdf9f2a6	-0.12204485
217	0xbbb8987b	-0.0056334115
218	0x3dd4b26f	0.10385596
219	0xbe964fd1	-0.2935777
220	0xc026ca28	-2.6060886
221	0x3f0ede59	0.55808026
222	0xbe0e1c32	-0.13877943
223	0xbe87ea5a	-0.26545984
224	0x3e7143ae	0.23560974
225	0xbd6e572e	-0.05818861
226	0x3cbf7580	0.023371458
227	0xbf78109b	-0.9690034
228	0x3ec57e1b	0.38572773
229	0xbe323222	-0.17401937
230	0x3e9f0de3	0.31065282
231	0xbeaf7a7c	-0.34273136
232	0xbe0856bc	-0.13314337
233	0xbd839b22	-0.064260736
234	0x3e73d20d	0.23810597
235	0x3e311d78	0.17296398
236	0xbdee774f	-0.1164385
237	0x3e2ed9e2	0.17075303
238	0x3eaa2cfd	0.33237448
239	0xc0687d0c	-3.6326323
240	0xbe970229	-0.29493836
241	0xbd87939f	-0.06619953
242	0x3e1b9126	0.15192088
243	0x3d6f6f02	0.058455475
244	0x3ea8d580	0.32975388
245	0xbdf89fc7	-0.1213985
246	0xbf974f42	-1.1821063
247	0xbf56d23c	-0.8391454
248	0x3ef62f0d	0.48082772
249	0xbe8e02bc	-0.2773646
250	0xbd13cc61	-0.036083583
251	0x3d12e294	0.035860613
252	0xbe6edf47	-0.23327361
253	0xbeb23cd1	-0.34812024
254	0xbe4bd5e3	-0.1990581
255	0x3f129c22	0.5726949

h2h.weight f4 [16, 16]
0	0x3e1d4cea	0.15361372
1	0xbe95b64d	-0.29240647
2	0x3c830e5c	0.015998058
3	0x3e2bcdb1	0.16777684
4	0xbe3a1f0b	-0.18175904
5	0xbd8be0f7	-0.06830018
6	0xbdfd0378	-0.12354177
7	0xbeb98443	-0.3623372
8	0xbe13d1fa	-0.14435568
9	0xbe93dc38	-0.2887895
10	0x3e165560	0.14681005
11	0xbe29ebfe	-0.1659393
12	0xbbea021c	-0.0071413647
13	0xbe0f27a8	-0.13979971
14	0xbddcbe69	-0.10778505
15	0x3ebdb46f	0.37051722
16	0x3cc139ac	0.02358707
17	0x3c8edd03	0.017439371
18	0xbe1dded2	-0.1541703
19	0xbe0383e2	-0.12843278
20	0x3d451dd5	0.048124153
21	0xbdbc9fd0	-0.09210169
22	0x3e9282ab	0.28615317
23	0x3e84a201	0.2590485
24	0x3ec28585	0.37992492
25	0x3e9eb187	0.30994818
26	0xbebad336	-0.36489266
27	0xbf1b9495	-0.60773593
28	0xbd8cb4cb	-0.06870421
29	0xbe27807c	-0.16357607
30	0x3d45e872	0.04831738
31	0xbee96f22	-0.455926
32	0xbe77813a	-0.2417039
33	0x3d9fc899	0.07801933
34	0x3e08a8ab	0.13345592
35	0x3e236cc1	0.15959455
36	0x3d32023a	0.043459155
37	0x3dfa96d1	0.12235797
38	0x3c24b32d	0.010052484
39	0xbd22aa9e	-0.039713494
40	0x3e47ea4f	0.19522975
41	0x3ef9730a	0.4872058
42	0x3b4a798d	0.0030895204
43	0xbe3e6e9b	-0.1859688
44	0x3d87a19d	0.06622622
45	0x3cbff0e2	0.023430292
46	0x3e2f72ef	0.17133687
47	0xbebe3bd2	-0.37155014
48	0x3e55ba0f	0.20871757
49	0x3ca96bc4	0.02068127
50	0xbc62c952	-0.013841944
51	0x3eb9a221	0.36256507
52	0xbd949cad	-0.07256446
53	0x3ce82394	0.028337277
54	0x3dc8f7c7	0.09812885
55	0xbe0b30c2	-0.13592818
56	0xbe9af930	-0.3026824
57	0xbea88c32	-0.3291946
58	0x3ea691a0	0.32532978
59	0x3e9a1c0a	0.30099517
60	0xbdc37361	-0.09543491
61	0x3eabc37c	0.3354758
62	0xbe11dfba	-0.14245501
63	0x3f04d58b	0.5188834
64	0xbd9e74bc	-0.07737109
65	0x3d29ae5e	0.041426055
66	0x3e933090	0.28747988
67	0x3d0aa058	0.033844322
68	0x3da5a446	0.08087973
69	0x3ea20b10	0.31649065
70	0xbc6d6426	-0.014489209
71	0xbdf49030	-0.11941564
72	0xbdbd8250	-0.09253371
73	0x3d040e89	0.032240424
74	0xbe949580	-0.2902031
75	0x3e6c8f15	0.23101456
76	0xbdd4a78f	-0.10383522
77	0xbe527c45	-0.20555218
78	0xbd6ab7e5	-0.05730428
79	0xbe336a07	-0.17520915
80	0xbd9dd3b5	-0.077063955
81	0xbdd025c4	-0.10163453
82	0x3df5b322	0.119970575
83	0xbe28f0dc	-0.1649813
84	0x3d87aae9	0.066243954
85	0x3cecf264	0.028924175
86	0x3d500532	0.050786205
87	0x3dbf648d	0.093453504
88	0x3da5acd4	0.08089605
89	0x3e75479b	0.23953097
90	0xbeb27113	-0.34851894
91	0xbd7ffaff	-0.062495228
92	0xbd46f4d3	-0.048573326
93	0x3e9b960d	0.30387917
94	0x3ddca19a	0.107730106
95	0xbe24fc15	-0.16111787
96	0xbe3ef958	-0.18649805
97	0x3e90d589	0.28287914
98	0xbdeb0d19	-0.114771076
99	0xbead9ec1	-0.33910182
100	0x3e5778a1	0.2104211
101	0xbe729355	-0.23689015
102	0x3e4b8298	0.19874036
103	0x3e89ec0c	0.26937902
104	0x3e8c9793	0.27459392
105	0x3e45d021	0.19317676
106	0xbd5854ee	-0.05281537
107	0x3e1d60b5	0.15368922
108	0x3d9fe9ed	0.0780829
109	0x3c5acb5f	0.0133541515
110	0x3e42376c	0.18966454
111	0xbe45c485	-0.19313248
112	0x3ebddac3	0.37080964
113	0xbe77a811	-0.24185206
114	0xbd446279	-0.047945473
115	0x3e942200	0.2893219
116	0x3e9cb8ef	0.30609843
117	0xbd514093	-0.051086973
118	0xbf293562	-0.6609708
119	0x3e189dce	0.14903948
120	0xbf1ff844	-0.624882
121	0xbf0edce8	-0.55805826
122	0x3ecf3a64	0.40474236
123	0x3f5024df	0.8130626
124	0xbf1427a2	-0.57872975
125	0x3df2f05a	0.1186225
126	0xbead8bf9	-0.33895853
127	0x3e057ea5	0.13036592
128	0xbdd29eb6	-0.10284178
129	0x3d85dd1a	0.065363124
130	0x3e34530d	0.17609806
131	0x3d6e4fea	0.05818168
132	0x3e7167a9	0.235747
133	0x3ea854b8	0.32877135
134	0x3eaaba85	0.33345428
135	0xbdf64684	-0.120251685
136	0xbd84d5d4	-0.06486097
137	0x3e8e9c6d	0.27853718
138	0x3de43d42	0.111444965
139	0xbe0af05b	-0.13568251
140	0xbdc314af	-0.095254295
141	0x3eaa0143	0.33204088
142	0x3dde6b9b	0.10860368
143	0x3d53ef7c	0.051742062
144	0x3dcf84fb	0.10132786
145	0x3e6ff037	0.23431478
146	0xbe50b091	-0.20379855
147	0xbdf67c4f	-0.12035429
148	0x3d4c1c63	0.04983176
149	0xb8d2eb6b	-0.0001005743
150	0x3e2aeb2d	0.16691275
151	0x3ec6dba8	0.3883946
152	0x3e5ee507	0.21767054
153	0x3d55c17d	0.052186478
154	0xbe39fa05	-0.18161781
155	0xbebbe284	-0.36696255
156	0x3d01d0ab	0.031693142
157	0xbcb738e0	-0.022365987
158	0x3eb0d394	0.3453642
159	0xbe0391de	-0.12848613
160	0x3e49f4ea	0.19722334
161	0x3da9c2a8	0.08289081
162	0x3cfa3aa3	0.030545538
163	0x3de6f383	0.11276915
164	0xbe35e35f	-0.17762516
165	0xbe821a75	-0.2541081
166	0xbcb14c80	-0.021642923
167	0xbe395f14	-0.18102676
168	0xbd7ce015	-0.06173714
169	0xbe4df2f6	-0.20112213
170	0x3e266061	0.16247703
171	0x3df22680	0.118237495
172	0x3e263d46	0.16234311
173	0xbe89b168	-0.26893163
174	0xbe8bf2d7	-0.2733371
175	0x3da904e9	0.0825289
176	0xbe5cf89d	-0.21579213
177	0xbd76f01a	-0.060287572
178	0x3dfb2e11	0.12264646
179	0x3e5ef062	0.21771386
180	0xbd7135a4	-0.058889046
181	0xbe74afd4	-0.23895198
182	0xbd5dba52	-0.054132767
183	0xbbf009d6	-0.0073253913
184	0xbd98f753	-0.07469048
185	0xbe1193ff	-0.14216612
186	0x3e16d8d7	0.14731155
187	0xbe99b88a	-0.30023605
188	0x3dc4c663	0.09608152
189	0xbdeeb29e	-0.11655162
190	0xbce52934	-0.027973749
191	0x3e82dde1	0.25559905
192	0xbed9c458	-0.4253261
193	0x3d756fd6	0.05992111
194	0xb91926fe	-0.00014605743
195	0xbeb4641a	-0.3523262
196	0xbe4add22	-0.19810918
197	0x3eb44b3e	0.35213655
198	0x3f03e1d1	0.51516443
199	0x3be10b64	0.006867813
200	0x3ef63ca1	0.4809313
201	0x3e5123f7	0.20423876
202	0xbe5e6226	-0.21717128
203	0xbe971a4c	-0.2951225
204	0x3e4436a2	0.19161466
205	0xbdc59de5	-0.096492566
206	0x3ec1600d	0.37768593
207	0x3b5430fd	0.0032377832
208	0x3ecfce61	0.40587142
209	0xbf07386c	-0.5282047
210	0xbe8c8b47	-0.2745001
211	0x3dc8ca05	0.09804157
212	0xbf237bef	-0.6386098
213	0xbe7ff4ac	-0.24995679
214	0xbb9c1274	-0.004762942
215	0x3d5f3d4c	0.054501817
216	0xbf1692e5	-0.58817893
217	0xbe0083c6	-0.12550268
218	0xbe618b69	-0.22025837
219	0x3dfb8f6a	0.122832134
220	0x3ee79d21	0.45237067
221	0x3d7493dd	0.059711326
222	0x3dc1b884	0.09459022
223	0x3e5dd05b	0.21661513
224	0xbe98fcf7	-0.29880497
225	0x3e8ef02c	0.27917612
226	0x3e67a89e	0.22622916
227	0x3d791ba3	0.060817372
228	0x3e80b89b	0.25140843
229	0x3efaba04	0.48970044
230	0xbd55fd55	-0.05224355
231	0x3ead6dec	0.33872926
232	0xbd2073b5	-0.039172847
233	0x3e0f03f3	0.1396635
234	0x3e02fdc7	0.12792121
235	0x3dc0c2c7	0.09412151
236	0xbe4b6472	-0.19862536
237	0xbdbe1aed	-0.092824794
238	0x3e9c1da0	0.30491352
239	0xbe8dd2fe	-0.27700037
240	0xbe21ef26	-0.15813884
241	0xbea1536b	-0.31508955
242	0xbeb3617b	-0.3503531
243	0x3e8b5819	0.2721565
244	0x3da73b25	0.08165578
245	0xbe17ae0c	-0.14812487
246	0xbea3f0b4	-0.3201958
247	0x3e225839	0.15853967
248	0xbf03f13e	-0.5153998
249	0xbe7f5c6f	-0.24937604
250	0x3e58a3b8	0.21156204
251	0x3ea2da79	0.31807306
252	0x3e2702b9	0.16309632
253	0x3ec453ff	0.38345334
254	0xbe1017d0	-0.14071584
255	0x3e589fe3	0.21154742

h2h.bias f4 [16]
0	0xbda35bce	-0.07976495
1	0x3e959bd0	0.29220438
2	0x3c92ad6d	0.017904961
3	0x3e904cf5	0.28183714
4	0x3da031ae	0.07821976
5	0x3dd5ec58	0.104454696
6	0xbd4b4f5c	-0.04963623
7	0xbdb14479	-0.08655638
8	0xbc542668	-0.01294861
9	0x3dc8410c	0.09778032
10	0xbc8c150e	-0.017099883
11	0xbd3b18a0	-0.04567778
12	0xbe0a72d5	-0.13520367
13	0x3e739fea	0.23791471
14	0xbebfc470	-0.37454557
15	0x3e5856a7	0.21126805

h2o.weight f4 [2, 16]
0	0x3f0f09be	0.5587424
1	0xbf480348	-0.78130007
2	0xbe9e70a1	-0.30945304
3	0x3ef480a2	0.4775439
4	0xbea52793	-0.32256755
5	0xbebb17f8	-0.36541724
6	0xbf053294	-0.520303
7	0xbf10be74	-0.5654061
8	0xbe5e7683	-0.21724896
9	0xbf181568	-0.59407663
10	0x3ead1763	0.33806905
11	0x3ee21747	0.44158384
12	0x3dda5561	0.10660816
13	0x3ebfb5b1	0.37443307
14	0xbf5f53ab	-0.8723704
15	0x3f467a57	0.77530426
16	0xbf3b7a61	-0.7323361
17	0x3f6762d6	0.90385187
18	0x3f0dda98	0.5541167
19	0xbf0c3431	-0.5476714
20	0x3f2ebf2e	0.6826047
21	0x3ef90d5c	0.48643005
22	0x3eae39e3	0.3402854
23	0x3eb7273b	0.35772118
24	0x3e96f3a8	0.2948277
25	0x3eb9a520	0.36258793
26	0xbed64a22	-0.41853434
27	0xbe0b48c2	-0.13601974
28	0x3b882c8d	0.0041557015
29	0xbeeef82d	-0.46673718
30	0x3f6467e6	0.89221036
31	0xbecc7648	-0.3993399

h2o.bias f4 [2]
0	0x3d99cd75	0.07509891
1	0x3e63806a	0.22216955
