checkpoints/model_epoch_8.pth (torch, 4866 bytes, 5 tensors)

i2h.weight f4 [16, 19]
00000000: e93d afbd cb9c ecbc 8075 97bd 8447 4b3e
00000010: 0aea 7fbe fb7c 5cbc 40b7 55be 9edc abbe
00000020: ce64 023f 3083 7ebd 66a4 0bbf 84cc 90c0
00000030: 535d b4be fb9d bc3e b435 b9be 3030 b8be
00000040: 0dd3 cabe f485 b93e f207 ebbf b3aa 8d3e
00000050: 6cc0 83be 21bc ae3f c5eb 20be 79b8 dc3d
00000060: d6db 18be 8b06 5e3e 6194 603c eaf5 1dbf
00000070: ae62 99bd 3d09 9d3f 6e15 9240 5ddf c73d
00000080: bd1b 42be 1da8 d83d d124 93be d1eb 953e
00000090: 00ab 533a b644 d13f 538d a13d e8f0 873d
000000a0: 2246 e63e 93a2 f2bc 8629 833d e41e ac3d
000000b0: 9464 5a3e 7a52 353e 6f93 23be ec77 f63d
000000c0: 4f8e 863f 50b1 9340 ea0a a03e afd1 873d
000000d0: 1741 88bd 3148 30bf c6a2 5a3e cda2 2a3e
000000e0: c32e c03f 46fe b5be 2031 8d3e aac4 073f
000000f0: b65c 8e3e b16e 9fbc 1f0d 91be fde1 34be
00000100: c3b5 8bbe 35e7 d23d 151a b4bc fcf8 e4bd
00000110: 2d99 98c0 94ed 663e 0a3e 74be 6c6c 813e
00000120: 593a 6fbe 3b3a 99be 138f b73d 5f89 c5bf
00000130: d752 b1bd af18 623d 6412 fbbd d2a8 a83e
00000140: 800d e93d 1260 6cbe f075 06be 7736 64bd
00000150: 12ca cdbd c30b 243e 7313 533e 5f3d 9640
00000160: f341 c6be 7593 91be d084 cd3d 9130 46bb
00000170: c649 1f3e 9ed9 36be 8dde ee3f 9dcf 773e
00000180: 9b59 803e 240a 833e 0f0c e9bd a567 a53e
00000190: a963 bfbd d0ad dd3e c07b 303e 4c50 b63b
000001a0: c71b 7fbc 8bd3 853e b7dd 9e40 25b3 b23e
000001b0: e7e2 e2be 0fbc ca3d d4e2 08be 3839 5d3d
000001c0: 0b6b 7d3d 39eb de3f 1287 d83e aa4a 58be
000001d0: 92d8 91be dbcf b0be 1787 bdbc ef6e 49be
000001e0: 7ea2 2f3e 13b2 b63e fd7e c4be 292e d6bd
000001f0: 66a2 a4be 442f 8e40 64cf 28be 0f3d 42bd
00000200: 24ac b73e 69f5 a9bc 6347 453e c1fb dcbd
00000210: 0e70 e13f 70bb 433e 117d 4d3e aa59 74be
00000220: 0fc3 993d 9451 ba3e d08d 973e 6c42 eabc
00000230: 692d 6a3e 1da0 e1bd 683b d8bd 4d6c c5be
00000240: 89c0 a440 51ef 283f 316c e6bd 7521 703d
00000250: 3f97 533f 6c79 213e 1a98 873e 076e 0640
00000260: 282f 053f de0b 32be 0e70 b33d a175 a5be
00000270: 1b39 3a3e 72ce d7bb dfb5 1d3e a7a4 90bd
00000280: ad28 f53c 8da3 a83d 68e7 d03b 8cde 8a40
00000290: 1d01 07bf f1e8 833e d741 8cbd 3671 c4be
000002a0: 7184 903e f2bb 57bd aab7 d13f 2cd1 d23e
000002b0: 42fe 8cbe 166d 0a3f f96a 95bc 3549 9e3c
000002c0: 385e abbc e64b 373e 9bdd 903e 6ce9 edbd
000002d0: c07e 49be b5bd 663e c725 9c40 7a54 dc3e
000002e0: 73dd f43d 378c 353e 62d0 9fbd 6ff8 3b3c
000002f0: 7771 b73d 5c1c e53f 9b76 0cbe 005b 5d3e
00000300: 0a25 66be de60 803d 8cc8 813d 8f5f 9e3d
00000310: 53fe 533d 3385 4f3e 4122 fcbc c6bf 3abe
00000320: 57f6 ddbd 1507 9fc0 5f54 023f 7fbb c6bd
00000330: fa3f 5d3d 0e08 16bf 31bf fb3b 7348 9e3c
00000340: 9ae2 d4bf 7893 40bf ca6d 9e3e 1909 ae3c
00000350: 3f1e 053f 19c1 153e bef3 dbbe 32c1 a03d
00000360: b519 c0bd b7fa b33c 6fb2 d43d 248e 58be
00000370: 784c d1bf 3825 4d3f 0583 1bbe a17a f9be
00000380: 24a6 0a3e b6c8 dcbd c95c 813c 3231 4cbf
00000390: fa99 ea3e 4d2a 51be 64bb a83e 299c 0fbf
000003a0: ab7b 06be 4916 cdbd 0186 8c3e 184a 203e
000003b0: ee58 3abe e2d9 2e3e 0917 c13e d5c5 94c0
000003c0: f2ff 93be 84ad aabd bcf8 383e 5044 b33c
000003d0: 0c06 c33e 7935 2fbe 77bf d7bf 4a61 47bf
000003e0: 6a3f 0d3f 53e0 b8be deb7 d8bd 8b4f fa3d
000003f0: 11db 85be dfd4 c4be f3b4 49be 555a 103f
-0.0855673 -0.028883358 -0.07395458 0.198515 -0.24991623 -0.013457532 -0.20870686 -0.33566755
0.50935066 -0.06213683 -0.5454773 -4.5249653 -0.3522745 0.3683928 -0.36173785 -0.35974264
-0.39614144 0.3623501 -1.83618 0.27669296 -0.25732744 1.3651162 -0.15714939 0.10777373
-0.14927611 0.21682183 0.013707251 -0.6170336 -0.07489525 1.2268444 4.565116 0.097594
-0.18955894 0.1057894 -0.28739026 0.29281476 0.0008074492 1.6349094 0.078882836 0.06637746
0.44975382 -0.029618537 0.06404404 0.084043294 0.2132743 0.17707244 -0.1597421 0.12034592
1.0512179 4.6153946 0.31258327 0.06631791 -0.0665304 -0.68860155 0.21351156 0.16663666
1.501427 -0.35545558 0.27576542 0.5303446 0.27805108 -0.019461961 -0.28330323 -0.17664333
-0.2728711 0.102980055 -0.021985093 -0.111803025 -4.768698 0.22551566 -0.23851791 0.25278032
-0.23362102 -0.2992724 0.08962836 -1.5432547 -0.086583786 0.05519932 -0.12259367 0.329413
0.11379528 -0.23083523 -0.13130927 -0.055716004 -0.100483075 0.16020112 0.20612888 4.6949916
-0.3872219 -0.28432813 0.100350976 -0.003024135 0.15555486 -0.17856452 1.8661667 0.24200292
0.25068364 0.25593674 -0.11379253 0.32305637 -0.093451805 0.4329667 0.17234707 0.0055637714
-0.0155705875 0.26137957 4.964565 0.349023 -0.44313738 0.098991506 -0.13367778 0.054009646
0.061869662 1.7415534 0.4229055 -0.21122232 -0.28485543 -0.3453358 -0.023135705 -0.19671224
0.1715183 0.35682735 -0.38378134 -0.10458023 -0.3215515 4.4432697 -0.16485363 -0.04742151
0.3587352 -0.020746903 0.19265513 -0.10790206 1.7612321 0.1911447 0.2006724 -0.23862329
0.075079076 0.36390364 0.29600382 -0.028596126 0.22868885 -0.11016867 -0.10558206 -0.3855919
5.148503 0.6599017 -0.112511046 0.058625657 0.8265266 0.15768975 0.26483232 2.1004655
0.5202508 -0.1738734 0.08761607 -0.32316306 0.18185847 -0.0065858895 0.1540141 -0.07062655
0.029926622 0.0823432 0.006375242 4.3396664 -0.52736074 0.25763658 -0.068484955 -0.38367623
0.28226045 -0.052669473 1.6384175 0.4117521 -0.27537733 0.540727 -0.018239485 0.019322017
-0.02091895 0.17900047 0.28294072 -0.11616787 -0.19677258 0.22533305 4.8796115 0.430332
0.119563006 0.17729269 -0.07803418 0.011472805 0.089571886 1.789928 -0.1371712 0.21616745
-0.22475067 0.06268476 0.063370794 0.0773307 0.051756214 0.20265655 -0.030778052 -0.18237218
-0.10838001 -4.9696145 0.5090999 -0.09703731 0.05401609 -0.5860604 0.007682704 0.019321656
-1.6631653 -0.7522502 0.30943137 0.021244572 0.51999277 0.14624442 -0.42959398 0.07849349
-0.09379903 0.021970136 0.10385596 -0.21147972 -1.6351461 0.80134916 -0.15186699 -0.4872637
0.1353994 -0.1078047 0.015791314 -0.79762566 0.458206 -0.20426293 0.32955468 -0.56097656
-0.13133113 -0.10014016 0.27445987 0.15653265 -0.18197986 0.17075303 0.37712887 -4.6491494
-0.28906208 -0.08333877 0.18063635 0.02188316 0.3809055 -0.17110242 -1.6855305 -0.77882826
0.5517489 -0.36108646 -0.10581945 0.12222203 -0.26143697 -0.38443658 -0.19697933 0.56387836

h2h.weight f4 [16, 16]
00000000: fe1a 723e b08c a5be 2ea5 f93b b4d6 393e
00000010: d2bc 94be 34a8 b2bd a8a9 39be 3952 bdbe
00000020: b935 0ebe e179 92be 314a 233e b64d 92be
00000030: 6498 b3bc e676 32bd 40ff 59be 2152 c63e
00000040: 0ac6 a63c b786 623d e86e 51be 935e 0ebe
00000050: d31e 563d 02e9 d9bd 6bc1 a03e 0491 8d3e
00000060: 157e c23e a316 a93e b4c7 d9be c9ff 43bf
00000070: 1268 63bd 7c1a 3abe 0b84 e53d f486 e8be
00000080: c84f 99be 0828 ee3d e3c1 153e 7202 0b3e
00000090: bb2a 543d 542c 073e 9567 373d e273 5fbb
000000a0: ee4d 213e 9a27 1b3f d9c0 5ebc 4319 f1bd
000000b0: b0db 323d d4a9 9bba 1317 333e 7b17 d0be
000000c0: c1f5 d23d 8671 c1bc c47c d6bc 7df9 b13e
000000d0: 6785 dbbc 5f62 9b3d 941a 3d3e 5133 8cbd
000000e0: 1f9b c1be dccd acbe 8b9f b43e 0840 913e
000000f0: 0fd0 40bd b03b d73e 92da 10be 5185 e93e
00000100: 086f 1fbd e001 303d ab0c 9e3e 4c5e f93b
00000110: c357 f03d 3250 853e 7d67 dabc ac69 dfbd
00000120: 7124 e1bd 2b36 4d3d 5c76 89be 34e3 8a3e
00000130: b3ae efbd 9797 9cbe 7bfa 28bc 6d5b 3fbe
00000140: ba44 cabd 51d9 aebd 070a c93d a9d5 1ebe
00000150: 79d7 8e3d f169 1f3d ec14 403d 2555 dc3d
00000160: d81d 8a3d 5b9c 9a3e 5ba9 c7be 7824 ddbc
00000170: 9569 4bbd 61ee a63e 0b78 543d 1984 2dbe
00000180: 07e3 bdbd b546 993e 1a2f 0bbe ac63 96be
00000190: 8e22 3b3e 5b67 72be b240 5e3e c245 483e
000001a0: 4649 c63e 316d 3c3e 7e97 423c 284c 7b3e
000001b0: a8f7 ce3d e6ee 173d c417 303e 90fb 2bbe
000001c0: 2919 c43e 90b4 4abe 89e6 1dbd 8aa0 9c3e
000001d0: 3c19 c83e 64bd e7bc a950 42bf 1eed df3d
000001e0: 95c5 48bf 61b2 16bf b51a dd3e 2b6c 733f
000001f0: 3bb6 29bf 1fd6 323d 3511 a1be 0237 643e
00000200: c291 0ebe 8355 373d 4ad7 1c3e 03b6 c33d
00000210: 1092 953e 03f9 b63e a960 d03e 0529 08be
00000220: e613 6dbd 3b26 863e f11d 703e 3b74 4bbe
00000230: a178 81bd 8bac df3e 18f3 bb3d f602 613c
00000240: 470a e23d 8f0a 753e 0680 7fbe 6f3c d7bd
00000250: 77ca 813d 8926 423c c0d3 433e 66e3 c73e
00000260: 93ab 923e 9f39 913d 0682 61be ebb7 05bf
00000270: e54a 513d 0cdc aebb 3c20 ae3e 90f8 02be
00000280: 087d 6f3e 981f 283d b908 0c3d e2cf 993d
00000290: f9a0 5cbe 9829 a3be 791f e4bc 9981 42be
000002a0: 6c6c 5abd 71cd 97be e638 153e 2339 cb3d
000002b0: 1ef9 233e c6ef a0be 0b3d 7dbe b2fb bc3d
000002c0: 2342 81be d862 c03c 3fde 163e db29 533e
000002d0: fb5b efba 1a62 80be 13c2 e1bc a3d6 31bd
000002e0: 41e4 2cbe 85a5 d8bd 3367 ba3d 4929 ccbe
000002f0: c21b c13d 7bb0 38be 2b3c c6bb f756 8b3e
00000300: f010 f3be ad8d c13d a8bf dbbc 5a81 a4be
00000310: e1b4 78be b036 d43e 7028 0e3f 4dbc 313d
00000320: c7f3 f03e d0a9 6a3e 93dc 6dbe e55f c8be
00000330: 0c33 603e c1a5 c6bb 6bb4 aa3e acbb 203c
00000340: 26a4 163f 84e7 0ebf 3d09 aebe 2489 113e
00000350: 36a1 47bf 0304 66be d442 17bd a364 59bd
00000360: b683 08bf 54e6 51be 5c68 9cbd 480d 863e
00000370: cb5f 093f 6778 a23d 4495 87bd e119 9e3e
00000380: 8e76 b0be 3967 823e 4068 273e 41bb 773d
00000390: 9d76 9a3e 4d29 0e3f 3577 213c 736c bd3e
000003a0: 1b0f ebbd 480f ed3d e321 4e3e 0de2 db3d
000003b0: 74cd 2ebe 48ae 42bd 5ff4 cd3e 9b0d 9cbe
000003c0: bb57 68be ce8a 83be e99c acbe 0a7b 8d3e
000003d0: fb94 fc3d af09 04be 3c01 95be c0e1 383e
000003e0: 5543 27bf b99b 3abe 48de 7e3e ce3f 933e
000003f0: d74d 3c3e f36f 023f 081b 56be e0ff 163e
0.23643109 -0.323339 0.007618568 0.18148309 -0.29050308 -0.087234885 -0.18131125 -0.36976793
-0.13887681 -0.2860861 0.1594627 -0.28574914 -0.021923251 -0.04357042 -0.21288776 0.38734534
0.020358104 0.055304255 -0.20452464 -0.13903265 0.05227549 -0.10640146 0.31397566 0.276497
0.37986818 0.33025083 -0.42535174 -0.7656217 -0.05551917 -0.18174165 0.11206826 -0.4541546
-0.2994368 0.11628729 0.14624743 0.13575152 0.051798563 0.13200504 0.044776518 -0.003409617
0.15752384 0.606073 -0.013595783 -0.117723964 0.04366654 -0.0011876174 0.17489271 -0.40642914
0.1030078 -0.023613703 -0.02618254 0.34760657 -0.02679701 0.07587122 0.1846717 -0.06845725
-0.3781366 -0.33750808 0.35277972 0.28369164 -0.04707342 0.42037725 -0.14145878 0.45609525
-0.038924247 0.04297054 0.3086904 0.007610118 0.11735489 0.26037747 -0.026660675 -0.10908827
-0.10993279 0.050100487 -0.26848114 0.27126467 -0.11703243 -0.30584404 -0.010313625 -0.1868722
-0.0987639 -0.085375436 0.09816366 -0.15511192 0.06974692 0.038919393 0.046894953 0.107584275
0.067439735 0.30197415 -0.38996395 -0.026994929 -0.049661238 0.32603744 0.051872294 -0.16944923
-0.09271818 0.29936758 -0.13592187 -0.2937292 0.182749 -0.2367224 0.21704367 0.1955786
0.38727778 0.18401028 0.011876939 0.2454077 0.101058304 0.037093066 0.17196566 -0.16795182
0.38300446 -0.19795442 -0.038549934 0.30591232 0.39081752 -0.02828855 -0.7590433 0.109338984
-0.78426486 -0.58865935 0.43184438 0.95086926 -0.66293687 0.043661233 -0.3145844 0.22286609
-0.1392279 0.044759285 0.15316501 0.095562 0.29213 0.35736856 0.40698746 -0.13296898
-0.057880305 0.26201043 0.23448922 -0.19868557 -0.06321836 0.43686327 0.09177226 0.013733616
0.110371165 0.23929809 -0.24951181 -0.10509574 0.06337445 0.011850008 0.19123745 0.3904068
0.28646526 0.070910685 -0.22022256 -0.5223376 0.051096816 -0.00533629 0.34008968 -0.12790132
0.2338754 0.041045755 0.034188006 0.075103536 -0.21545781 -0.3186767 -0.027847039 -0.1899475
-0.053326055 -0.29648927 0.14572486 0.09923007 0.16013 -0.31432933 -0.24730317 0.092276946
-0.2524577 0.023484632 0.14733218 0.20621435 -0.0018261665 -0.25074846 -0.027558362 -0.043417584
-0.16883947 -0.10578445 0.09101715 -0.39875248 0.094291225 -0.18036072 -0.006049653 0.27214786
-0.4747386 0.09450851 -0.026824787 -0.32129937 -0.2428775 0.41447973 0.5553045 0.04339247
0.47060987 0.22916341 -0.23228674 -0.39135662 0.21894473 -0.00606224 0.33340773 0.009810369
0.5884422 -0.55822015 -0.33991423 0.14212471 -0.77980363 -0.22462468 -0.036928967 -0.05307449
-0.53325975 -0.2049802 -0.076370925 0.26182008 0.53661793 0.07933121 -0.06620267 0.3087912
-0.3446545 0.25469378 0.16348362 0.060481314 0.3016862 0.5553177 0.009855081 0.36996803
-0.114774905 0.1157518 0.20130114 0.10736475 -0.17070562 -0.04752949 0.40225503 -0.3047913
-0.22689717 -0.25691837 -0.33713463 0.27632934 0.12333103 -0.12894319 -0.29102504 0.18054867
-0.65337116 -0.18223466 0.24889481 0.28759617 0.18389069 0.5095207 -0.20908749 0.14746046

h2h.bias f4 [16]
00000000: dfb1 ffbd 5587 ab3e 4519 8d3b a35f 9f3e
00000010: 5ce0 b53d 429e df3d 7918 79bd f06d 80bd
00000020: 4734 4abc 9906 e53d 4e36 a7bc e6fe 81bd
00000030: f81b 0cbe a7a8 973e 9fa7 d3be 8571 773e
-0.12485098 0.33501688 0.004305991 0.31127653 0.08880684 0.10918857 -0.060814355 -0.06270969
-0.012341565 0.11182899 -0.020411637 -0.06347446 -0.13682544 0.2962086 -0.41338822 0.24164398

h2o.weight f4 [2, 16]
00000000: 3d0f 103f 4c50 6bbf e62e bfbe 6ba3 103f
00000010: 5e5e e7be 10c9 b2be 9236 fcbe 2446 46bf
00000020: 8528 6bbe 04e3 14bf 4b88 cb3e fea8 c13e
00000030: 8c22 a93e ca9a f53e 397a 83bf 6730 783f
00000040: 737f 3cbf 7a57 853f 2f39 1e3f df96 22bf
00000050: d1d9 4f3f 27bd f03e 2d0b a03e 5a1b 113f
00000060: e04b 9d3e dc3f b33e b2b9 f4be aed6 94bd
00000070: f9d9 60be 2a6e 12bf 4404 863f 1af1 17bf
0.5627325 -0.919194 -0.37340468 0.56499356 -0.45189184 -0.34919024 -0.49260384 -0.77450776
-0.22964676 -0.581589 0.3975242 0.37824243 0.3303417 0.47969657 -1.0271674 0.96948856
-0.7363197 1.0417321 0.61806005 -0.6351146 0.81191736 0.47019312 0.31258526 0.5668236
0.3072195 0.35009658 -0.47797924 -0.072675094 -0.2195815 -0.57199347 1.0470052 -0.59352267

h2o.bias f4 [2]
00000000: 13a6 863d b911 6d3e
0.06574645 0.23151292
