checkpoints/model_checkpoint_first_try.pth (torch, 4893 bytes, 5 tensors)

i2h.weight f4 [16, 19]
00000000: df21 623e 4807 ce3e 0d25 4a3f 9314 83bf
00000010: 154f 073e f9ea 5a3f 9b55 463e e549 ddbf
00000020: e2cd 8abe 0ea0 32be b7b7 823c 071e e340
00000030: 8893 7fbe 2d3e b4bd 1be2 233e 2fa3 3a3f
00000040: e2d1 343e 4e15 fa3e 23c7 4f40 bb90 47bf
00000050: 20f9 bd3e 9e9d 433f 6602 813f c181 50bf
00000060: 8b52 143e c7ed c73e 44ed d03e 6b62 42be
00000070: e048 e63d 75c7 673f df65 9fc0 18bc 3c3e
00000080: c72d 79be 1e44 88bf cb3f 073e 3f14 e3be
00000090: 0d15 cebd 4567 3bc0 4d19 a6be 54ef ea3e
000000a0: ba91 55be 9361 e63e 40b1 ebbe 7b98 833e
000000b0: 5609 e3bd 0c3c d9be 4740 ec3e f4d7 323d
000000c0: 88da 9fbe c558 c0c0 1868 2bbe f153 c13e
000000d0: 7bce ac3d 100d b43e e893 21be 1a7d 4a3f
000000e0: 957a 42c0 e104 8abe 3e11 68be 336f 84bf
000000f0: f06a 043f 211f f13d f7d2 693e 728b 76be
00000100: 1107 6ebd 877c 89bd 262b 543e 1020 1fbe
00000110: 3298 2b41 477d e43f 9041 8dbe b407 80be
00000120: 7eea 9d3f 258b 14bd 8652 be3e 8144 9140
00000130: 839e b53e 2129 353b 623f 9bbe 3d52 e4be
00000140: deb7 f63b 80ee 5b3f 8a69 13bf e38f d1bd
00000150: 71a4 6e3f e6b1 efbd 6926 d9be 8668 b3c0
00000160: c4bb a33f f108 e5be fc64 85be 8393 c43f
00000170: c90e 18bb e19e a33f 417e 37c0 a573 fa3e
00000180: 4e4c b5be 2e6e da3f d8ef 3abe 03ef 0c3e
00000190: 8e9f 43be 9207 0dbe d32e 00bf 213a d3bd
000001a0: 4d3b c9bb 8e2e 893f 875e 5540 5413 44bf
000001b0: 2cb7 83be f569 bd3e afc0 393f 5b28 a53f
000001c0: bdcf fbbe 15ef 4840 0893 c9bf d70d 423f
000001d0: 313f 94bd 6412 063f 40eb 00bf 7151 02be
000001e0: f765 18be 6249 07bf 95f8 f3be 7bfc 623e
000001f0: 4d78 74c0 1cfd ef3f 5980 8e3f 3e76 07bf
00000200: 1d8c 51bd eae7 3240 eb58 f2be 6237 d9be
00000210: 04cc ffbb 095c 403f 1c9e abbd 6820 b2bc
00000220: 85f5 873d e12a 323f 799c 70be 280c 6f3c
00000230: 0f9a 2240 df44 01be 8eff 33be 00ac b7be
00000240: 04be b840 6c2c 10bf b6af de3c 610f 9b3e
00000250: 3e75 86be 3ac0 233e c6a5 b4be 4516 7340
00000260: 8946 9ebe e056 293e df70 52be 0ca6 21bf
00000270: 2e1d 63be c9d9 4c3d d365 21bf caed e63d
00000280: 7da7 d3be 3bae 0f3e bcec c0be 85b8 b6c0
00000290: 9a1a bfbe d38e ee3d 2be4 e33e 1ec0 8cbf
000002a0: bef1 aabd c760 743e d17c 4bc0 11f9 c33e
000002b0: b412 ef3d 29eb 04c0 90f3 463f 9421 123f
000002c0: b977 f5bd ecba ba3e 8a1d b33c 6a87 623e
000002d0: 91b2 563e 4ede 12c0 9330 bdc0 7a63 cdbe
000002e0: 42c2 e0be 511a 85bf e5ef 113e d748 b6bd
000002f0: 0e5a 72be 9b07 3ac0 668a e7be d5a1 393f
00000300: 4ae9 02bf ba48 c23e f216 abbe 27dd 98be
00000310: 7c7c 35be 4d2e a63f ecc4 a03d a055 4abd
00000320: 00b4 babe e24a b340 06e3 293f 1de2 70be
00000330: c697 18be 8dd7 efbe b204 acbe 49fd a5be
00000340: 8576 4040 d1ab 80be bf10 91bf 7ac6 753f
00000350: c391 c2bd abd6 8abc 8151 8a3e ce1e 343f
00000360: 3a9c 4d3f afe7 8a3e 1963 5ebe c483 5b40
00000370: f8ed 8bc0 e7d4 3bbf 5fec 0dbe 8a79 8bbf
00000380: 57ea 53bf 4ae7 973e 7c4e 3b3f 501f b13d
00000390: 0190 49bd 81c4 d53e 1cda ef3f d17a dfbf
000003a0: c3a5 aa3e f12e c9bd 5f19 8e3e 0bb0 00be
000003b0: 6c6d c5bd e295 063e 7234 103f fd2a 8240
000003c0: d69a 03bf 5e4e 993d 757e 9b3e bd5b 883f
000003d0: 5926 033f bb94 0b3f 6d34 0a40 72d4 dcbe
000003e0: 5024 073f a905 193f dea2 07be 54d8 84bd
000003f0: e0ce 76be b62e 9bbc d753 8a3f 0e7a dbbe
0.22083233 0.4023993 0.78962785 -1.0240654 0.13213761 0.8551479 0.19368593 -1.7288176
-0.271102 -0.17443869 0.015956743 7.0974154 -0.24958622 -0.088009216 0.16004221 0.7290525
0.17658189 0.4884438 3.2465293 -0.77955216 0.3710413 0.7641238 1.0078857 -0.8144799
0.14484613 0.39048597 0.4080602 -0.18982856 0.112443686 0.9053872 -4.9811854 0.18431127
-0.24333869 -1.0645788 0.13207929 -0.44351384 -0.10062609 -2.928178 -0.32441178 0.45885718
-0.20856372 0.44996318 -0.4603367 0.2570227 -0.11085765 -0.42428625 0.4614279 0.04366298
-0.31221414 -6.010836 -0.16738927 0.37759355 0.084378205 0.35166216 -0.15779078 0.7909714
-3.0387318 -0.26956847 -0.22662827 -1.0346435 0.51725674 0.117735155 0.22834383 -0.24076632
-0.058112208 -0.06713205 0.20719585 -0.15539575 10.724657 1.7850732 -0.27589083 -0.25005877
1.2337186 -0.03626551 0.37172335 4.5396123 0.35472497 0.0027642923 -0.30321795 -0.44593993
0.007529243 0.859108 -0.57582915 -0.10232522 0.9321967 -0.11703853 -0.42412117 -5.606509
1.2791677 -0.44733384 -0.26053607 1.5357517 -0.0023202172 1.2782861 -2.867081 0.48916355
-0.35409778 1.7064874 -0.18255556 0.1376305 -0.19103834 -0.13772419 -0.5007145 -0.103138216
-0.0061411024 1.0717332 3.3338945 -0.7659199 -0.25725687 0.369949 0.72559637 1.290294
-0.4918193 3.1395924 -1.5747995 0.7580237 -0.07238615 0.5237181 -0.50358963 -0.1272638
-0.14882647 -0.5284635 -0.4765059 0.22166626 -3.8198426 1.8749118 1.1132919 -0.529148
-0.051159013 2.795405 -0.47333464 -0.42425066 -0.007806303 0.75140435 -0.08379766 -0.021743968
0.06638626 0.6959668 -0.2349719 0.014590301 2.540653 -0.12623928 -0.17577955 -0.35873413
5.7731953 -0.5631778 0.027183395 0.3028517 -0.26261324 0.15991297 -0.35282725 3.7982342
-0.3091319 0.16537046 -0.2055087 -0.6314399 -0.221791 0.050012384 -0.63045996 0.112758234
-0.4133872 0.14031307 -0.37680614 -5.7100244 -0.37324983 0.11648335 0.44510016 -1.099613
-0.0834689 0.23865043 -3.1794932 0.3827596 0.11673489 -2.076853 0.77715397 0.57082486
-0.11985726 0.36470735 0.021864671 0.22121969 0.20966555 -2.2948184 -5.9121795 -0.40114957
-0.43898207 -1.0398656 0.14251669 -0.08900612 -0.23667166 -2.9067142 -0.45222777 0.7251256
-0.5113722 0.3794611 -0.33415943 -0.29856226 -0.17723268 1.298288 0.0785006 -0.049398065
-0.36465454 5.602891 0.66362035 -0.23523755 -0.14901647 -0.4684414 -0.33597332 -0.32419804
3.0072339 -0.25131086 -1.1333236 0.96005976 -0.09500458 -0.016948065 0.27015308 0.70359504
0.8031651 0.27129886 -0.2171749 3.4299173 -4.372799 -0.7337174 -0.138597 -1.0896466
-0.8277945 0.29668647 0.7316663 0.086485505 -0.0492096 0.41751483 1.8738437 -1.7459356
0.3332959 -0.098234065 0.27753732 -0.12567155 -0.09640011 0.13143113 0.56330025 4.0677476
-0.51408136 0.074856505 0.30369917 1.0652996 0.5123039 0.5452382 2.1594498 -0.43130833
0.52789783 0.5977426 -0.13245723 -0.06486574 -0.24102354 -0.018943172 1.0806836 -0.42866558

h2h.weight f4 [16, 16]
00000000: b9b3 3e3e 0bc4 3b3f d4c0 59bf e513 453e
00000010: ff04 98be 7a81 79be 6cf2 bf3d 6327 1e3e
00000020: 4ec4 16be 7add 02be f95e 223f e1b2 8d3e
00000030: 8a7b c0be 7b0d 023e e290 39bf db73 28be
00000040: dc6f e6be c072 853c c946 10bd 72cb c6bd
00000050: 0790 31be 846d 0e3e 92dc 75bd 00d4 963e
00000060: 6f97 c53e b667 673e 0774 8abe eddb abba
00000070: b0a6 cdbd 77c0 cb3e 9e84 88bd 2fd7 10be
00000080: 2c50 a5bd a2fc 9cbc 0152 e83e a9ad 743e
00000090: e173 dd3e 115e 203d c8af a8ba 55f1 5abe
000000a0: ea58 893e bc76 c93e 687c 88bd 93cc 69be
000000b0: 1608 d63b 508d 2bbe 729e b83d fe55 d2bd
000000c0: f35d 38bf 84d9 0b3f 3113 843f 78f3 5ebd
000000d0: 4862 013f 3382 9abf 8d51 073f 9eab 4bbf
000000e0: 761b 06be 38b1 a9bd 8a85 363f 1f80 a73e
000000f0: 55a9 acbe 1f74 183f 27ac 4f3f dd0f fc3e
00000100: 1005 f23d 5de4 183f dc66 db3e 433f 2fbd
00000110: 05cd 1f3f b001 2abc da6c 12bd 7e97 8cbe
00000120: f642 ef3e 5817 0a3e d1c4 11bf 7230 683e
00000130: bc4e 91bd b40c b33e 1c84 67bd 57ae 583d
00000140: 8737 883c a6df 33bf e6a6 8d3e a395 99bd
00000150: ef82 16be 7a9e 34bd cba2 0cbd f13f 04be
00000160: f8a7 bc3d b01b bcbe e26e babe af68 06bf
00000170: 990b 0fbd c930 2fbe 625b 853e aba1 8b3e
00000180: ce95 9fbe 3a09 373e 04a9 193f cd0d 9fbe
00000190: 0ec8 a5bd ac33 833e 950c ae3c f31b a0be
000001a0: a329 123e 21a4 103f 450f 90bf f9ef b93e
000001b0: 25c4 40bf f638 e03e d045 ca3d 4864 403e
000001c0: 8766 b03e 14c8 0a3d 682c 8abd 5507 cd3e
000001d0: 0ada b6be a51e 513e f3c5 6b3f 0126 623e
000001e0: aa08 8dbd 74cd da3e c4de e23e 2c18 edbc
000001f0: c327 1a3e 6f15 5a3e 63df 70be 7516 e83d
00000200: 14d5 183e bb3e af3e c445 e4bd 6c58 7abd
00000210: e363 073e 9bd2 08be 6fc3 b53e 545c 8dbe
00000220: c0a9 9a3d e4e6 463e 615b 9fbe fac0 b83e
00000230: 233e 723c 1fc0 843e 06ca 07be 4c74 013e
00000240: 2e71 92be f945 353f 0760 273e aefb 60bd
00000250: 258e a03e 0876 2dbd 65ad 383e beff d23c
00000260: bc08 3dbe ef24 443f 1375 533f 7a63 4ebe
00000270: f079 433e ce2a 533e a4d6 c73e be38 1abb
00000280: 57ee 043f 4733 2d3d e5e3 2abd fa82 603e
00000290: affd c5bc e05f 263e b260 013e 932e 2b3d
000002a0: fddc 73be d046 ef3d 7e57 343e d299 293e
000002b0: d6c8 f83e 57a0 5ebe 5964 91be d1c5 2dbe
000002c0: 42a9 683f 5766 66be 42b0 89be 78ef e33e
000002d0: c209 47bf c298 923e a8ec 85bc de65 60bd
000002e0: b675 01bd 2f5a a2be c5e3 093d 94ba ca3e
000002f0: ecc9 fa3e b3ff 4ebf 488f 85be 3b6c 43be
00000300: 03da 383f 86cb 72bf a367 c93e b55e 3d3e
00000310: a075 45bf 364a 763e 479a 87bf a559 323f
00000320: 717f e23d 17e5 96bf ae24 b9be 5524 c93d
00000330: 563e 8a3e 5d46 69bf 10eb 8cbe 9744 f1be
00000340: 4483 1ebf 88b7 bc3e 3118 1f3f 04d9 c6be
00000350: ff4a fb3d 2b62 c3be a491 c13e 1ca2 30bf
00000360: 399c ff3e 2ae3 8cbe 9df2 e83e 83aa 25be
00000370: 1631 05bf c446 dd3d a4b3 7a3f 6314 6b3e
00000380: ae44 a8be 96c3 393f 164a d83d ab77 43be
00000390: c12a fabe ed15 5cbd 3572 463d 1bb3 95bb
000003a0: 17bf 223f ab3f a73e a80e 55be d2af 493f
000003b0: 9b61 823c 15c9 9b3e 9b91 39bc 2a17 2a3e
000003c0: ab89 1fbf 3e54 393e a19a 8c3f 2dce 3dbf
000003d0: 1b97 133e 18c3 5ebf 9b20 a83f c90f 5abf
000003e0: f456 283f 3e11 d73e 742e 6abd 9495 14bf
000003f0: 81e0 3bbf 15b0 943f e9f3 2f3f f959 943f
0.18623246 0.7334601 -0.8505986 0.1924587 -0.29691312 -0.24365798 0.0937241 0.15444712
-0.14723322 -0.12779799 0.63426167 0.27675536 -0.37594253 0.12700455 -0.724867 -0.16450445
-0.45007217 0.016290069 -0.035223756 -0.09706773 -0.17340098 0.13908964 -0.060024805 0.29458618
0.38592097 0.22598156 -0.27041647 -0.0013111808 -0.10041559 0.39795277 -0.0666592 -0.14144586
-0.08071932 -0.019163433 0.45375064 0.23894371 0.4325247 0.03915221 -0.001286977 -0.21381123
0.2682565 0.393484 -0.066643536 -0.22831945 0.0065317256 -0.16753125 0.09014596 -0.10270308
-0.72018355 0.5462878 1.0318357 -0.05443141 0.5054059 -1.2070984 0.5285881 -0.7955874
-0.13096413 -0.08285755 0.71297514 0.32714936 -0.3372294 0.59552187 0.8112206 0.49230853
0.11817372 0.59723455 0.42851913 -0.04278494 0.6242221 -0.010376379 -0.03574834 -0.2745933
0.46730775 0.13485467 -0.56940943 0.2267473 -0.070950955 0.3497063 -0.056522474 0.05290064
0.01662804 -0.70263135 0.27666396 -0.07499244 -0.14698385 -0.044096448 -0.03433494 -0.12915017
0.09211725 -0.36739874 -0.36412722 -0.52503484 -0.03492317 -0.17108454 0.26046282 0.2727178
-0.3116898 0.17874613 0.6002352 -0.31065217 -0.08094798 0.2562536 0.021246234 -0.31271324
0.14273696 0.5650044 -1.125466 0.36315897 -0.7529929 0.43793458 0.09876597 0.18788254
0.34453222 0.033882216 -0.06746751 0.40044656 -0.35713226 0.20421846 0.9209892 0.2208481
-0.06886418 0.42734873 0.44310582 -0.02894219 0.1505423 0.21297239 -0.23522715 0.11332408
0.14925033 0.34227547 -0.11146119 -0.061119482 0.13221698 -0.1336159 0.35500666 -0.27609503
0.075519085 0.19424015 -0.31124404 0.3608473 0.014785322 0.25927827 -0.1326066 0.1264202
-0.28601974 0.70809895 0.16345225 -0.05492752 0.31358448 -0.04234889 0.18034895 0.025756713
-0.18460363 0.76618856 0.82600516 -0.20155135 0.19089484 0.20621797 0.39030945 -0.0023532356
0.5192618 0.04228523 -0.041721243 0.21924964 -0.024168817 0.16247511 0.12634543 0.041792464
-0.23814769 0.11683428 0.176115 0.16562584 0.48590726 -0.21740852 -0.28396872 -0.16969992
0.90883267 -0.22499977 -0.26892287 0.44518638 -0.77749264 0.2863217 -0.016348198 -0.054784648
-0.0316064 -0.3170943 0.033664484 0.39595473 0.4898218 -0.80858916 -0.26085877 -0.19084255
0.7220766 -0.948418 0.3933688 0.18493159 -0.77132607 0.24051747 -1.0593957 0.69668037
0.11059464 -1.1788663 -0.36160797 0.09821383 0.27000684 -0.9112299 -0.27523088 -0.47122642
-0.61919045 0.36858773 0.6214629 -0.38837445 0.12270164 -0.38160834 0.37806427 -0.6899736
0.49923876 -0.27517062 0.454976 -0.16178326 -0.52028024 0.10804513 0.9793036 0.22956996
-0.32864898 0.72564065 0.10561006 -0.19088618 -0.48860744 -0.053731848 0.04844876 -0.00456847
0.6357283 0.32665762 -0.20806372 0.78783906 0.015915683 0.3042685 -0.011326219 0.16610399
-0.6231944 0.18098542 1.0984689 -0.74142724 0.14413111 -0.8701644 1.313495 -0.85180336
0.6575768 0.42005342 -0.057173207 -0.5804074 -0.7338944 1.1616236 0.6873155 1.1589957

h2h.bias f4 [16]
00000000: a6b0 26bc 43c9 42bd ca1c a43e 0b5b 33be
00000010: b312 ea3e 2697 b43e 87a1 9dbe 7da7 9b3e
00000020: 23f9 3dbe e332 ddbe 7618 5c3e 6b6a 3bbe
00000030: 7936 ba3d 5346 5ebe badd 053f a634 fe3d
-0.010173952 -0.04755522 0.32053214 -0.17515199 0.4571739 0.35271567 -0.30787298 0.3040122
-0.1855207 -0.43202886 0.21493706 -0.18302314 0.09092421 -0.21706514 0.5229145 0.12412386

h2o.weight f4 [2, 16]
00000000: 06e0 cbbf e445 f73e 36bd a43e 0c3c a4bf
00000010: 5849 a13f a330 b0be 01ba 053f 9a72 4abf
00000020: 7072 743e ecbc 773f 2e1f a5bf 1ffe d6be
00000030: 3688 95bf c851 823f 7d04 803f ed29 513f
00000040: 59be b33f adc2 86be f221 bbbe ed51 b33f
00000050: 7e1c 8fbf fe05 9a3e 6664 10bf 0f66 533f
00000060: 14b8 c0be 7ec3 39bf 6a9e 7e3f da09 ff3e
00000070: bcd9 833f adcb 8bbf 61b3 67bf 0af4 4ebf
-1.5927742 0.4829551 0.32175606 -1.2830825 1.2600508 -0.34412107 0.52236944 -0.7908112
0.2387178 0.96772647 -1.290014 -0.41990754 -1.1682193 1.0181208 1.000137 0.817046
1.4042464 -0.263204 -0.36549336 1.4009377 -1.118057 0.30082697 -0.56403196 0.82577604
-0.3764044 -0.7256392 0.9946047 0.49812204 1.0300822 -1.0921532 -0.90508085 -0.80841124

h2o.bias f4 [2]
00000000: 6ed7 aebd 5273 563e
-0.08537184 0.20942429
