checkpoints/model_epoch_10.pth (torch, 4875 bytes, 5 tensors)

i2h.weight f4 [16, 19]
000000 65 9f 65 bc a5 dd de bb ef 5c 68 bd 6f 36 34 3e
       -0.014015053 -0.0068013244 -0.056729253 0.1759889
000010 c5 7a 97 be 0a 9b 8e 3d 3f fa 2c be f7 ba f7 be
       -0.29585853 0.06963165 -0.16892336 -0.4838483
000020 04 9a d0 3e 30 83 7e bd 95 85 e8 be b7 3b 93 c0
       0.40742505 -0.06213683 -0.45414415 -4.6010394
000030 52 f0 ec be 7c d8 d6 3e 8a 89 fb be 3e cf ef be
       -0.462771 0.4196204 -0.4912837 -0.468378
000040 66 b1 b4 be a5 00 dc 3e 15 b8 01 c0 95 73 97 3e
       -0.35291594 0.42969242 -2.0268605 0.2958037
000050 7c c2 66 be 86 b7 c2 3f 80 2c 3b be 84 9e d0 3d
       -0.22535127 1.5212257 -0.18278694 0.101864845
000060 8d ba 74 be e2 b7 79 3e 3b 39 e9 bd 6a 9a 22 bf
       -0.23899288 0.24386552 -0.11387869 -0.6351687
000070 ae 62 99 bd 64 a5 c2 3f 94 7f 98 40 a1 ef 92 3e
       -0.07489525 1.5206723 4.7655735 0.28698447
000080 8a e4 f5 bd b4 33 0a 3e 4f e9 5a be 3f ee 91 3e
       -0.12006481 0.13496286 -0.21378063 0.2850208
000090 5f a1 1c 3d 60 70 ed 3f 5b ad 74 3c f3 cf e6 3d
       0.038239833 1.8549919 0.014933909 0.11270132
0000a0 50 ad f7 3e 83 32 d1 bc e9 de 20 3d e0 66 6c 3d
       0.48374414 -0.025536781 0.039275084 0.057715297
0000b0 80 bc 49 3e 55 45 79 3e 2e fb 43 be ec 77 f6 3d
       0.19700813 0.24342854 -0.19138786 0.12034592
0000c0 1b 4c 8f 3f 4c 61 9b 40 0f bf d0 3e 5b 06 06 3e
       1.11951 4.855627 0.40770766 0.13088362
0000d0 a4 51 e3 bd bb b0 4c bf 59 3a 32 3e 7c c6 78 3e
       -0.11099556 -0.7995717 0.1740507 0.24294466
0000e0 62 3c de 3f ac 0d 96 be dc 37 81 3e a8 b7 12 3f
       1.7362177 -0.29307306 0.2523793 0.5731149
0000f0 bb bb bc 3e cc 48 b7 bc 83 d3 a0 be 2f c3 4e be
       0.36861977 -0.02237358 -0.3141137 -0.20191644
000100 09 27 8c be d9 67 bc 3c 15 1a b4 bc 8f 10 ba bd
       -0.2737353 0.022998737 -0.021985093 -0.090851896
000110 5d 22 a2 c0 7c be 90 3e 14 03 96 be f1 04 8e 3e
       -5.0666947 0.28270328 -0.29299223 0.27738145
000120 49 8d 8c be cf bd 93 be 33 bd a0 3d ee ff e1 bf
       -0.27451542 -0.2885575 0.07848587 -1.7656229
000130 30 41 00 be c8 2b 64 3d 0e e4 1a be 76 5b ec 3e
       -0.12524867 0.055705816 -0.15126058 0.4616353
000140 b2 71 0d 3e 3f f1 74 be 42 b5 3d be 24 e7 8a bc
       0.13812903 -0.23920153 -0.18526176 -0.01695592
000150 aa f5 c4 bd c3 0b 24 3e 62 ca 27 3e 24 d5 9e 40
       -0.09617169 0.16020112 0.16385797 4.963518
000160 93 63 bf be 73 f0 8e be c5 8a 6f 3d 57 2a ed bc
       -0.37380657 -0.27917823 0.05848195 -0.028950853
000170 5b 84 04 3e 98 25 1e be d2 ec 0b 40 99 5c 96 3e
       0.12941115 -0.15444028 2.1863294 0.2936752
000180 a3 a7 8f 3e ad bc 3d 3e 0c 11 20 be 5e dc cf 3e
       0.28057584 0.18529005 -0.15631503 0.40597814
000190 54 3f a4 bd b0 cf dc 3e ca 15 6e 3e 4a 98 d3 3c
       -0.080198914 0.43127203 0.232505 0.025829453
0001a0 c7 1b 7f bc f7 25 9b 3e f2 1e a5 40 2d 5e df 3e
       -0.0155705875 0.30302402 5.1600275 0.43626538
0001b0 3e 41 12 bf 45 9d 8f 3d 91 6d 97 bd a6 b6 1f 3d
       -0.571308 0.07012419 -0.07393945 0.038992546
0001c0 2e 91 21 3c 2a 23 06 40 d2 9e e8 3e ec be 2a be
       0.009861274 2.0958962 0.4543367 -0.16674393
0001d0 88 0c 95 be 0b c2 bb be 6e b1 19 bd 80 32 d1 be
       -0.29111123 -0.3667148 -0.037522726 -0.4085884
0001e0 86 c0 0f 3e db 33 eb 3e a4 96 fc be 29 2e d6 bd
       0.14038286 0.45938 -0.4933368 -0.10458023
0001f0 ca 37 b8 be 84 40 98 40 49 f5 93 be 8b 42 f0 bd
       -0.35980064 4.7578754 -0.28898075 -0.11731442
000200 bc b8 ed 3e 6b ab 86 3c d7 ae 7a 3e 7e 40 29 be
       0.46430004 0.01643916 0.24480759 -0.16528508
000210 53 a1 03 40 50 e9 88 3d f0 85 46 3e e8 44 54 be
       2.0567214 0.06685126 0.1938703 -0.2072941
000220 de 60 31 3c 1c 1a b5 3e 17 f3 be 3e 0b ce 63 bd
       0.010826318 0.35371482 0.37294838 -0.05561642
000230 44 d4 58 3e da 45 89 bd 68 3b d8 bd 36 76 ea be
       0.21174723 -0.06702776 -0.10558206 -0.45793313
000240 30 ff b8 40 a5 61 33 3f d1 dd ef bd ed 29 92 3d
       5.781151 0.7007087 -0.1171223 0.07136903
000250 2c b7 76 3f 80 c2 2a 3e ec da 97 3e 37 48 1c 40
       0.9637325 0.16675758 0.29659212 2.4419076
000260 28 a7 0a 3f 16 6e e4 bd 0e 9a d6 3d 59 71 c9 be
       0.5416131 -0.1115381 0.10478602 -0.3934429
000270 48 29 00 3e 0d 1a f9 3c fd 15 0a 3e d7 03 1c be
       0.12515748 0.03040793 0.1348495 -0.1523584
000280 a0 31 66 3c 8d a3 a8 3d fa 27 04 3d 9c 29 95 40
       0.014049917 0.0823432 0.032264687 4.6613293
000290 66 81 05 bf 3e 63 87 3e 10 f7 89 bd ef 01 c7 be
       -0.5215057 0.26442903 -0.067365766 -0.38868663
0002a0 4a 9a 92 3e 24 ff 90 3c 39 49 fd 3f 1f 96 c7 3e
       0.28633338 0.017699786 1.9787971 0.3898172
0002b0 f4 9f be be 4b 70 0d 3f d7 a0 9f 3c 1d 0b 18 3c
       -0.3723141 0.5524947 0.019485874 0.009279993
0002c0 f3 2c 3c bd ff 8c 37 3e 48 98 ac 3e 42 18 03 be
       -0.045941304 0.1792488 0.3370993 -0.12802222
0002d0 c0 7e 49 be fb 88 78 3e a9 26 a5 40 8c 91 0e 3f
       -0.19677258 0.24271004 5.1609693 0.55690837
0002e0 a8 a5 e4 3d 29 65 2d 3e 66 03 f0 bb 43 9a 41 3b
       0.11164409 0.16933121 -0.007324624 0.002954141
0002f0 5a f1 c9 3d e8 cd 05 40 04 7c a3 bd 57 3b 5a 3e
       0.09860487 2.0906925 -0.079826385 0.21311699
000300 f4 96 7c be cd c3 c2 3d f8 5a a7 3d 03 4c 14 3c
       -0.24666959 0.09510002 0.08171648 0.009051326
000310 d2 b0 85 3b 44 ac 75 3e 4e 96 e5 bc c6 bf 3a be
       0.0040799165 0.23991495 -0.028025772 -0.18237218
000320 b9 4f 2c be 9a 55 a5 c0 7a 30 2a 3f 09 50 f3 bd
       -0.16827287 -5.1666994 0.6648022 -0.118805
000330 c0 4e dc 3d b3 0e 44 bf 55 74 95 3c 58 1b 95 bc
       0.10757208 -0.7658493 0.018243948 -0.018201515
000340 70 2c f8 bf b2 11 81 bf 3e a0 b4 3e 20 d1 2f 3d
       -1.9388561 -1.0083525 0.35278505 0.042924047
000350 83 c5 04 3f 4d f1 83 3e a7 78 22 bf 13 20 23 3e
       0.5186388 0.25770035 -0.6346535 0.15930204
000360 29 07 97 bc 3a c1 af 3d 6f b2 d4 3d 24 19 4a be
       -0.018436031 0.08581777 0.10385596 -0.19736153
000370 14 89 68 bf 80 58 8d 3f 30 5a 10 be 2f 8d 40 bf
       -0.90834165 1.1042633 -0.14096904 -0.7521543
000380 b6 88 c0 3d 53 eb 52 be fe 60 af 3c 63 68 08 bf
       0.094010755 -0.20597582 0.021408554 -0.5328428
000390 03 28 14 3f a9 a0 7b be 7c b3 a5 3e 6b a5 49 bf
       0.57873553 -0.24573006 0.32363498 -0.7876803
0003a0 ac 9a 09 be dc ad 29 be 3a ea 9f 3e e2 58 34 3e
       -0.13437909 -0.16570228 0.31233388 0.17612031
0003b0 02 9e 46 be e2 d9 2e 3e 3d 09 d8 3e 70 23 a9 c0
       -0.19396213 0.17075303 0.42194548 -5.285576
0003c0 3e 54 b4 be 26 7c b7 bd e0 0d 80 3e e3 c3 3c bd
       -0.35220522 -0.08959226 0.25010586 -0.04608525
0003d0 0f 6c d5 3e 2d 52 72 be 17 9c 04 c0 aa aa 36 bf
       0.41684005 -0.2366416 -2.072027 -0.7135416
0003e0 96 50 29 3f 0d 4f ef be 96 64 64 bd 35 b4 25 3e
       0.6613859 -0.46739998 -0.05575999 0.16182025
0003f0 2f 47 5c be cd 53 f9 be f1 c3 67 be 52 51 23 3f
       -0.2151153 -0.48696747 -0.2263334 0.6379596

h2h.weight f4 [16, 16]
000000 33 f1 c8 3e f3 ca ac be d0 c5 cb 3b ad 20 78 3e
       0.3924652 -0.33748588 0.0062186494 0.24231215
000010 ba 6f c8 be e5 fa 1a be 1e b4 a7 be 95 83 af be
       -0.3914774 -0.15134771 -0.32754606 -0.34280077
000020 ae 8e f3 bd f3 51 a1 be a6 f5 36 3e 60 ea 8e be
       -0.11892448 -0.31507835 0.17867145 -0.2791319
000030 22 03 9d bd 3c c9 ae 3d be f6 9c be 45 9c c9 3e
       -0.07666613 0.08534476 -0.30657 0.39377037
000040 d4 c2 52 3d b8 25 c9 3d 41 85 84 be 79 e1 0b be
       0.051455334 0.098216474 -0.25882915 -0.1366023
000050 3d 7f 5f 3d ff 47 b5 bd 09 b4 b2 3e 40 67 73 3e
       0.054564703 -0.08851623 0.3490298 0.23769855
000060 36 ca da 3e bc 24 bd 3e 91 e7 eb be 63 bb 74 bf
       0.427324 0.3694209 -0.4607511 -0.9559843
000070 77 6d 49 bd ed e1 49 be 41 40 1b 3e 8f a1 dc be
       -0.04917666 -0.1971509 0.1516123 -0.4309201
000080 58 ae 8c be 82 95 d5 3d 89 ce 17 3e 51 3c 23 3e
       -0.27476764 0.10428907 0.1482488 0.15940978
000090 d4 48 c3 3d e8 ad 21 3e f5 20 90 3d ce ea c7 3b
       0.09535375 0.15788996 0.07037536 0.006100989
0000a0 3f 3c 52 3e b4 3b 1b 3f 63 d3 51 bd 7d 3a fa bb
       0.20530795 0.60637975 -0.051226985 -0.007636367
0000b0 37 f3 22 bc a0 3d df bc 04 e0 5c 3e e2 bb c7 be
       -0.009945682 -0.027251065 0.2156983 -0.3901053
0000c0 50 73 63 3c 52 02 6b bd 32 b7 9e bd 3e 42 a0 3e
       0.013882473 -0.05737526 -0.077497855 0.3130054
0000d0 c2 62 f8 3c de 51 46 3d 59 c4 9e 3e 4f 91 f1 3b
       0.030320529 0.04841792 0.31009176 0.0073720585
0000e0 6c 2d c2 be 47 4d bb be 0d 79 ae 3e ed fa 2f 3e
       -0.3792528 -0.36582395 0.3407673 0.17185564
0000f0 75 4a c7 3c 5b 8d f2 3e dd 2b e5 bd 5b d3 a9 3e
       0.024327496 0.4737347 -0.11190007 0.33169064
000100 e5 a8 32 3c 36 d6 db 3c d5 ae 9f 3e 78 0f 7b 3a
       0.010904525 0.026835542 0.31188074 0.0009577195
000110 fe 30 6e 3e 44 47 6e 3e 92 c8 ac bc 43 df 79 bd
       0.23260877 0.23269373 -0.021091733 -0.061003935
000120 f6 7e 35 be 57 50 86 3d e5 4b 82 be 53 dc 9c 3e
       -0.17724213 0.06558292 -0.25448528 0.30636844
000130 ec 1e 36 be 96 d6 c8 be 8b 61 b3 3c 23 e5 27 be
       -0.17785233 -0.39226216 0.021897098 -0.16396002
000140 ab de ab bd 8e 71 cd bd 63 3c 9e 3d dc fe 3d be
       -0.0839208 -0.100314245 0.077263616 -0.18554252
000150 ee bc e4 3d aa 7b 21 3d 1f 84 1d 3d 23 7e 01 3e
       0.11168848 0.039424576 0.03845608 0.12645774
000160 f6 80 92 3c 72 4e 9f 3e 4d 18 c8 be c6 40 ca bc
       0.017883759 0.31114537 -0.3908104 -0.02468909
000170 3b 7e 8c bd c7 2b a7 3e 83 bf 10 bd f9 4b 3d be
       -0.06860014 0.32650587 -0.03533889 -0.18486013
000180 45 57 ac bc 0b 2d 8c 3e 1a f3 fa bd 4e 37 8b be
       -0.021037707 0.27378115 -0.12253399 -0.27190632
000190 f1 97 44 3e 29 0f 6e be c6 5e 94 3e 47 91 a4 3d
       0.19198586 -0.2324797 0.28978556 0.08035522
0001a0 a1 9d e7 3e 6d 24 11 3e 8a 22 0c 3e f8 b4 da 3e
       0.4523745 0.14174052 0.1368505 0.42716193
0001b0 0c 89 10 3e ee 11 34 3d 31 90 10 3e 6d 52 f2 bd
       0.14114779 0.04396241 0.14117505 -0.11832128
0001c0 03 ed c4 3e e5 3a 48 be b8 2e 3b bd 1f 45 7f 3e
       0.38462076 -0.19553716 -0.04569885 0.24928711
0001d0 0e 62 ba 3e b6 ac bc 3d 5c fa 58 bf 37 85 fd 3d
       0.36402935 0.092126295 -0.8475702 0.12378924
0001e0 8a 43 57 bf e4 83 1f bf 4d a7 b9 3e 6f 5f 81 3f
       -0.8408743 -0.62310624 0.36260453 1.0107249
0001f0 6a e4 30 bf eb 0d a7 bc 5d 6a 8a be d7 03 94 3e
       -0.6909853 -0.020392379 -0.27034274 0.2890918
000200 bd 94 0b be 96 ea 28 3d f6 e1 21 3e de 6f f9 3d
       -0.13630958 0.041239344 0.15808854 0.1217954
000210 99 14 b5 3e c4 2c c2 3e 8c 16 e9 3e 2f a5 2e be
       0.35367277 0.37924778 0.45525014 -0.170552
000220 ae 35 d1 bb 22 11 80 3e 37 cb 97 3e 10 65 1e be
       -0.006384573 0.2501307 0.29647228 -0.1546824
000230 c0 ae c8 bc 3c fe f8 3e d7 b4 c2 3d e1 5a 42 3b
       -0.02449739 0.48631465 0.09507149 0.0029656219
000240 8e fb 16 3e d1 3b 82 3e ee cd 8e be a5 c2 de bd
       0.14744398 0.2543626 -0.27891487 -0.10876969
000250 4a 87 96 3d 9b 69 14 3d fd bb 64 3e d2 e1 c1 3e
       0.07350023 0.036233526 0.22337337 0.378676
000260 5f 68 c7 3e 11 b2 bf 3d 54 90 84 be df 0e 28 bf
       0.38946816 0.09360135 -0.25891364 -0.6564769
000270 b2 cb af 3d 58 4c 8c bc 61 76 a7 3e 49 b9 f3 bd
       0.08583774 -0.017126247 0.32707503 -0.11900575
000280 84 46 82 3e 2f a5 c5 bb ca 8d 8a 3c 99 bc 55 3d
       0.25444424 -0.0060316543 0.016913313 0.052181814
000290 eb 19 a5 be d1 d7 be be d9 f7 08 bd 52 ee 4e be
       -0.32246336 -0.3727403 -0.03343949 -0.202081
0002a0 a7 8e f3 bc 59 4b b1 be d8 7d df 3d 99 78 ae 3d
       -0.029731108 -0.34627798 0.10912675 0.08519096
0002b0 03 ac 32 3e 25 35 a6 be 98 18 71 be 7b 36 c2 3d
       0.1744843 -0.3246242 -0.23544538 0.094830476
0002c0 ad f8 97 be e7 9e ab 3d 00 6a 1d 3e b7 5b 41 3e
       -0.29681912 0.083799176 0.15372467 0.18882643
0002d0 96 95 44 3d e0 5b 62 be 3d 77 86 bc 7e 5f 3a bd
       0.04799422 -0.2210536 -0.01641428 -0.045501225
0002e0 64 07 a2 be 8e f0 72 bd cd 04 64 3d f5 51 e8 be
       -0.31646264 -0.059311442 0.05566864 -0.45375028
0002f0 39 6d 9d 3d 13 d7 81 be 85 67 24 3d d2 98 96 3e
       0.07686848 -0.253594 0.040137786 0.29413468
000300 d4 0e 02 bf 56 e9 8c 3d 8c 5b e0 bd fb 7b a0 be
       -0.50803876 0.06880443 -0.10954961 -0.3134459
000310 05 28 a2 be 77 33 df 3e 0e 16 08 3f b9 a6 cb 3d
       -0.31671157 0.43593952 0.5315865 0.09943909
000320 d6 81 bf 3e c0 55 53 3e 75 df 84 be 07 a8 e3 be
       0.37403744 0.2063818 -0.25951734 -0.44464132
000330 29 5d 71 3e b4 f5 85 3d 50 9c 99 3e 5d 2b 61 3d
       0.23570694 0.06541005 0.3000207 0.054972995
000340 e5 d0 2b 3f c4 72 15 bf ce ad b0 be ef 71 2a 3e
       0.6711562 -0.58378243 -0.34507602 0.16645025
000350 bf 82 54 bf 29 7e 40 be c4 4d 67 bd 4b d5 28 be
       -0.83012 -0.18798126 -0.056470647 -0.16487615
000360 46 b5 0c bf 86 3a a7 be 0f 9a 40 3d 27 a8 cd 3e
       -0.549641 -0.32661837 0.04702192 0.40167353
000370 3d b6 19 3f 91 f4 01 3d bf 4a 15 be 62 f4 e8 3e
       0.600437 0.031727377 -0.14579295 0.4549895
000380 2c fa a7 be 88 09 3d 3e 84 1c 3a 3d 56 5f 3a 3d
       -0.32808053 0.18460667 0.04543735 0.045501076
000390 01 dd ad 3e c6 69 20 3f fb fb b9 3d b4 fe c7 3e
       0.33957675 0.626614 0.090812646 0.3906151
0003a0 aa 77 03 be ac b5 c0 3d 1c 86 81 3e cd 2f 01 3d
       -0.12838617 0.09409651 0.2529763 0.031539727
0003b0 13 0b 1d be da 0b 1f bc 52 ee e7 3e c9 67 a3 be
       -0.15336256 -0.0097074155 0.4529901 -0.3191512
0003c0 15 e4 9c be 2c b9 4f be c9 d3 af be be 6e 87 3e
       -0.30642763 -0.20285481 -0.34341267 0.26451677
0003d0 1b d4 28 3e d9 a5 2e be 19 d6 8e be ed 45 53 3e
       0.16487162 -0.17055453 -0.2789772 0.20632143
0003e0 ee b7 2f bf 0a e6 02 be 3b ce 58 3e 43 54 91 3e
       -0.6864003 -0.12783065 0.2117242 0.283846
0003f0 bc 9c 4a 3e 60 40 0c 3f aa 4f 4e be 01 45 c8 3d
       0.19786352 0.5478573 -0.20147577 0.097787865

h2h.bias f4 [16]
000000 a8 0a 3b be 8b bb ba 3e 2f f1 28 bb 3f 5f a7 3e
       -0.18265784 0.3647121 -0.0025778522 0.32689855
000010 b6 2f c7 3d 09 5f d1 3d 15 01 9f bd 08 26 7b bd
       0.09725897 0.10223205 -0.07763878 -0.061315566
000020 bc 26 ac bc 0a 3d d6 3d 06 01 ef bc ad 69 99 bd
       -0.021014564 0.10460861 -0.029175293 -0.07490859
000030 16 cd 12 be 99 78 ac 3e 09 88 da be 5d 9f 86 3e
       -0.14336047 0.3368576 -0.42681912 0.2629346

h2o.weight f4 [2, 16]
000000 8a 2b 21 3f 88 24 89 bf 07 cc ea be 5f c4 1a 3f
       0.6295706 -1.0714273 -0.45858786 0.6045589
000010 04 17 27 bf a7 a3 b8 be 20 76 04 bf f9 48 5d bf
       -0.65269494 -0.36062357 -0.51742744 -0.8643947
000020 82 0f b2 be 80 a6 1d bf cc d7 fc 3e 50 a6 cd 3e
       -0.34777457 -0.61582184 0.4938339 0.4016595
000030 64 63 18 3f 1f 35 1a 3f 8a d3 95 bf 53 99 93 3f
       0.5952666 0.60237306 -1.1705182 1.1531166
000040 9a 9b 4d bf 6f d3 98 3f 18 08 34 3f ea b7 2c bf
       -0.80315554 1.1939524 0.7032485 -0.6746813
000050 8d a0 81 3f b5 96 f6 3e 61 c0 ac 3e 2a 1e 28 3f
       1.0127121 0.48161855 0.33740523 0.65671027
000060 a7 c6 d9 3e b0 c5 c4 3e e4 03 13 bf 71 ca c4 bd
       0.42534372 0.38432074 -0.5742781 -0.09608925
000070 a4 11 f8 be a7 d5 31 bf b4 5d 98 3f ce f3 46 bf
       -0.4845096 -0.6946663 1.1903596 -0.77715766

h2o.bias f4 [2]
000000 9d b9 5d 3d 4f f3 78 3e
       0.054132093 0.24311565
