checkpoints/model_epoch_9.pth (torch, 4866 bytes, 5 tensors)

i2h.weight f4 [16, 19]
000000 18 97 02 bd a3 90 dc bc 14 b9 82 bd 2d e2 4b 3e
       -0.031882375 -0.026924437 -0.06382957 0.19910498
000010 03 39 90 be fb b9 c9 3c 64 cb 45 be 9e a4 d1 be
       -0.28168496 0.024624815 -0.19315869 -0.40945905
000020 23 ca df 3e 30 83 7e bd 08 7e 0a bf 04 66 92 c0
       0.43708906 -0.06213683 -0.5409856 -4.574953
000030 b1 b7 d0 be 22 d4 cd 3e 95 4b dd be 93 55 db be
       -0.40765145 0.40200907 -0.43221727 -0.42838725
000040 78 37 c2 be 8e 98 c8 3e db 9f f8 bf a7 99 92 3e
       -0.37932944 0.3917889 -1.9423784 0.28632852
000050 3c c9 73 be 19 59 ba 3f 75 2a 30 be 7b 26 ee 3d
       -0.23807234 1.455844 -0.17203696 0.11628433
000060 88 a5 40 be 83 e6 5b 3e 45 77 17 bd 93 db 1f bf
       -0.18813145 0.21474652 -0.03697898 -0.6244442
000070 ae 62 99 bd ca 64 b2 3f 88 21 95 40 0c 0a 39 3e
       -0.07489525 1.3937008 4.660343 0.18070239
000080 5e 2a 25 be 9b d1 e7 3d 01 a7 81 be b9 73 97 3e
       -0.16129443 0.11319276 -0.25322726 0.29580477
000090 46 63 73 3c be 79 df 3f a8 69 24 3d 05 e5 c3 3d
       0.014855212 1.7459028 0.040139824 0.095651664
0000a0 bf c8 f0 3e 22 76 24 bd 94 53 84 3d af 56 8c 3d
       0.47028157 -0.040151723 0.06461254 0.06852471
0000b0 d9 67 40 3e d5 18 5d 3e 65 1a 35 be ec 77 f6 3d
       0.18789615 0.21591504 -0.1768585 0.12034592
0000c0 7f a9 8d 3f 4e 70 97 40 94 d0 bb 3e e9 30 d2 3d
       1.1067351 4.732459 0.3668257 0.10263235
0000d0 1e 60 c7 bd 68 1c 3e bf e6 77 4c 3e 1b ec 51 3e
       -0.0973513 -0.74262094 0.19967613 0.20500223
0000e0 ee 4d ce 3f 4f a7 a3 be f8 c1 7f 3e 9e ad 0b 3f
       1.6117532 -0.31963584 0.24976337 0.54561794
0000f0 9c b3 ac 3e 8f 4c 10 bd 9e 86 97 be 93 42 35 be
       0.3373078 -0.035229262 -0.29594892 -0.17701177
000100 16 80 8b be 4c 4b 8e 3d 15 1a b4 bc 02 8b d8 bd
       -0.2724616 0.069479555 -0.021985093 -0.10573389
000110 d1 29 9d c0 fb 82 86 3e 28 29 88 be bc cc 8c 3e
       -4.9113545 0.26271805 -0.265939 0.2749995
000120 24 01 85 be cb ac 99 be c9 0c b3 3d e1 16 d4 bf
       -0.25977433 -0.30014643 0.08742673 -1.6569482
000130 ff 34 e5 bd 11 5c 77 3d 70 8a 0b be 0e 5f cf 3e
       -0.11191749 0.060390536 -0.13627028 0.40502208
000140 34 a7 0b 3e 64 10 71 be 07 13 32 be df 67 01 bd
       0.13638002 -0.23541409 -0.17390071 -0.0315932
000150 dc df c8 bd c3 0b 24 3e 16 ce 48 3e 4a 46 9a 40
       -0.09808323 0.16020112 0.19609866 4.82108
000160 45 1a c2 be eb 19 91 be ed 44 a8 3d bc 7f 82 bc
       -0.37910667 -0.28340086 0.082162715 -0.01593005
000170 77 62 15 3e 8c f4 30 be 56 15 01 40 1c 1f 86 3e
       0.14588343 -0.17280787 2.0169272 0.2619561
000180 0b ed 89 3e 0d 1d 65 3e 8d 9a 0a be ff d9 bd 3e
       0.26938662 0.22374363 -0.13535519 0.3708038
000190 be 35 b8 bd d6 e3 d6 3e c1 6d 52 3e 44 65 42 3c
       -0.089946255 0.419707 0.2054968 0.011864964
0001a0 c7 1b 7f bc b5 64 95 3e 11 6d a2 40 38 9c d0 3e
       -0.0155705875 0.29178396 5.075814 0.40744185
0001b0 63 75 01 bf 7a f7 b8 3d 57 4f cc bd 98 e3 48 3d
       -0.5056974 0.090315774 -0.099760704 0.049045175
0001c0 68 e9 db 3c 9c fc f3 3f b9 db dd 3e 63 25 3e be
       0.026844695 1.9061465 0.43331698 -0.1856895
0001d0 bc 8f 95 be 1e be bc be f0 d6 df bc c6 44 8e be
       -0.29211223 -0.36863798 -0.02732417 -0.27786845
0001e0 5f 19 1b 3e 95 3f cc 3e a8 37 e2 be 29 2e d6 bd
       0.15146397 0.3989226 -0.44183087 -0.10458023
0001f0 46 97 ad be 12 bb 92 40 f6 d0 66 be 45 52 ab bd
       -0.33904475 4.5853357 -0.2254065 -0.08365301
000200 18 58 d8 3e 8b 6a 7e 3b 48 8c 6b 3e a8 b7 13 be
       0.4225471 0.0038820829 0.23002732 -0.14425528
000210 25 77 f3 3f 7a df 01 3e f0 5c 52 3e cb 4b 60 be
       1.9020735 0.12682906 0.20543265 -0.21903913
000220 2e 12 17 3d 5c de bf 3e 86 37 a9 3e 6f 03 66 bd
       0.036882572 0.37474334 0.33050174 -0.05615562
000230 2c 0e 67 3e 8e 04 be bd 68 3b d8 bd fb 8b d2 be
       0.22564 -0.092782125 -0.10558206 -0.41122422
000240 8b 98 af 40 50 c8 2e 3f 0a 1e f2 bd dd 99 87 3d
       5.487371 0.682744 -0.11822136 0.06621144
000250 ab 36 67 3f f0 7c 26 3e 06 b4 8c 3e 97 5f 10 40
       0.9031779 0.16258597 0.27481097 2.2558343
000260 52 11 08 3f b8 84 16 be 96 70 cb 3d d0 0e b8 be
       0.5315143 -0.14699066 0.099335834 -0.359488
000270 10 4d 25 3e be 81 93 3c 33 c2 0b 3e 0e a0 d5 bd
       0.16142678 0.018006202 0.136483 -0.10430919
000280 f3 9a e4 3c 8d a3 a8 3d 64 d4 d9 3c ec 98 8f 40
       0.027905917 0.0823432 0.026590534 4.487417
000290 aa 72 07 bf 18 01 86 3e 01 ba a1 bd d7 4d c8 be
       -0.5290934 0.2617271 -0.078968056 -0.39121887
0002a0 9b 35 93 3e 9c 4c cc bc 46 77 e6 3f 2a ad cd 3e
       0.28751835 -0.024938874 1.8005149 0.40171176
0002b0 69 c6 a4 be 05 2b 0d 3f b0 db 12 bb d8 a9 cd 3c
       -0.32182625 0.5514377 -0.0022408776 0.025105402
0002c0 ff 81 04 bd a1 4f 2a 3e a8 0e a2 3e c6 5b f8 bd
       -0.032350536 0.16631939 0.31651807 -0.121268794
0002d0 c0 7e 49 be 8e 05 7d 3e 3b a4 a0 40 49 08 00 3f
       -0.19677258 0.2470915 5.0200477 0.5001264
0002e0 c7 62 f1 3d e2 74 2e 3e 1b 6c 1a bd b2 ad 3d 3c
       0.117864184 0.17036775 -0.037700754 0.011577057
0002f0 fc 48 ac 3d 11 80 f7 3f 82 1e dc bd ee 8b 54 3e
       0.08412358 1.9335958 -0.107480064 0.20756504
000300 87 f9 78 be 19 b6 9c 3d 84 9c 77 3d f5 0a 51 3d
       -0.24313937 0.0765192 0.060452 0.05103584
000310 21 cf 3c 3d e5 79 5e 3e 6a 3f 04 bd c6 bf 3a be
       0.04609597 0.21726187 -0.03228704 -0.18237218
000320 3b eb 1a be 4a 9b a2 c0 54 ce 14 3f f0 a5 e5 bd
       -0.15128796 -5.081456 0.5812733 -0.11213291
000330 eb 31 b7 3d d7 6b 30 bf 60 cc cc 3b fb 2c d9 3b
       0.08945068 -0.6891455 0.0062499493 0.0066276765
000340 d6 d9 e8 bf f3 12 5c bf 3c 62 a2 3e 94 b6 e7 3c
       -1.8191478 -0.85966414 0.31715572 0.028285302
000350 0f 75 08 3f 25 a1 44 3e a3 57 08 bf 7e 15 05 3e
       0.5330362 0.19202097 -0.53258723 0.1299648
000360 16 73 80 bd ef 97 53 3d 6f b2 d4 3d cc c0 63 be
       -0.06271951 0.051658567 0.10385596 -0.22241515
000370 b9 3d 9e bf bd 3f 75 3f 16 c7 1b be 32 1d 21 bf
       -1.2362586 0.9580038 -0.15212664 -0.62935174
000380 5c 53 dd 3d b8 f1 21 be 35 9d c3 3c 71 4b 2e bf
       0.10806915 -0.15814865 0.023878673 -0.68083864
000390 28 ba 05 3f 49 23 65 be 8d 41 a8 3e d6 ea 2a bf
       0.52237177 -0.22376741 0.3286251 -0.6676458
0003a0 b6 2c 14 be 93 6e 03 be 05 f7 9f 3e 82 22 22 3e
       -0.14470181 -0.1283515 0.31243148 0.15833476
0003b0 bd 1e 45 be e2 d9 2e 3e bc 3b c7 3e 94 c0 9f c0
       -0.19250007 0.17075303 0.3891276 -4.992258
0003c0 6c 3b a7 be 55 21 a6 bd 20 9c 5b 3e a7 ac fd bb
       -0.32662523 -0.08111826 0.21446276 -0.007741529
0003d0 df a8 ca 3e 16 b8 4a be 62 4c ef bf 37 cf 3b bf
       0.39581963 -0.19796786 -1.8695185 -0.7336306
0003e0 3f 19 17 3f 52 20 d5 be 28 5e a2 bd 3d 5c 06 3e
       0.590229 -0.4162622 -0.07928115 0.13121124
0003f0 3b ac 79 be 43 d0 d2 be 87 20 61 be f4 00 18 3f
       -0.24382107 -0.41174516 -0.21985064 0.59376454

h2h.weight f4 [16, 16]
000000 d7 40 a7 3e 62 ad a8 be 99 83 37 3b c7 9f 58 3e
       0.32666656 -0.3294478 0.0028002022 0.211547
000010 43 ef be be de f9 e6 bd b8 39 81 be 4e be b8 be
       -0.37291917 -0.11278127 -0.25239348 -0.3608269
000020 67 d0 0c be 83 d0 94 be bb c0 30 3e c7 d5 94 be
       -0.13751374 -0.29065332 0.17261021 -0.2906935
000030 0d e6 37 bd 66 1d 0d 3d 71 24 8b be 62 ef cb 3e
       -0.044897128 0.034451865 -0.2717624 0.39831072
000040 16 2b e3 3c 1d a4 a4 3d f2 77 68 be 05 d1 0d be
       0.027730506 0.080391146 -0.22702006 -0.13849266
000050 3a fc 7d 3d 12 46 bd bd 73 20 a9 3e 65 f5 86 3e
       0.06200812 -0.092418805 0.3303257 0.26359096
000060 bc 0c d1 3e f1 bf b2 3e 41 af e4 be eb 7c 5d bf
       0.40830028 0.34912065 -0.44664958 -0.86518735
000070 b4 ea 56 bd a8 59 41 be aa 02 09 3e 8a dd e2 be
       -0.052469924 -0.18881857 0.13379923 -0.44309646
000080 91 67 98 be 49 78 f8 3d 71 c4 1b 3e cd 4f 13 3e
       -0.29766515 0.121323176 0.15211655 0.1438591
000090 8a 9a 96 3d 4f 9f 17 3e 13 39 4e 3d 05 c6 22 3c
       0.07353695 0.14806865 0.0503474 0.009934907
0000a0 02 64 31 3e 25 f7 1f 3f 19 9f 04 bd 61 18 82 bd
       0.17323306 0.6248649 -0.03237829 -0.06352306
0000b0 a8 58 67 3c 4c 8f 71 bc 0f dc 42 3e 00 f3 cd be
       0.014120258 -0.014743637 0.19029258 -0.40224457
0000c0 71 33 61 3d 8f d2 2b bd 48 3f 60 bd 14 70 a7 3e
       0.0549807 -0.04194885 -0.05474785 0.32702696
0000d0 f3 08 76 3b 04 f7 82 3d 36 2c 83 3e 50 79 bc bc
       0.0037541955 0.06394771 0.25619668 -0.023007065
0000e0 29 7d cf be 34 9b b3 be 49 ca b5 3e 37 f6 61 3e
       -0.40525177 -0.35079348 0.35505894 0.2206658
0000f0 d7 2f 1e bc 4a 27 e9 3e 25 f7 06 be 8e 73 c6 3e
       -0.009654961 0.45537788 -0.13180216 0.38760036
000100 7a 6d 86 bc 43 10 0f 3d e3 9e a2 3e 5e 1a b7 3b
       -0.016409624 0.034927618 0.31761846 0.00558786
000110 98 98 34 3e 4b 47 79 3e a5 48 f6 bc 0a ab ad bd
       0.17636335 0.24343602 -0.030063936 -0.08479889
000120 7d 4b 14 be fe d0 6a 3d b7 63 82 be e7 2c 97 3e
       -0.14481921 0.057328217 -0.254667 0.29526445
000130 b8 9d 1a be 81 79 b4 be a8 24 07 3c cb de 36 be
       -0.15099227 -0.3524895 0.008248486 -0.17858426
000140 db af b9 bd 4b 31 b6 bd 37 e2 bc 3d da be 25 be
       -0.09066745 -0.08896121 0.092228346 -0.16186085
000150 e2 c6 b9 3d 7d c1 2c 3d cf 2e 27 3d 1f 4a eb 3d
       0.09071137 0.042176712 0.040816125 0.11488747
000160 0c e6 5b 3d 99 a2 9f 3e f1 b7 c8 be 06 27 3d bc
       0.053686187 0.3117874 -0.39202836 -0.011544948
000170 f2 18 74 bd 97 6b a9 3e 17 8f 30 3c e4 e9 32 be
       -0.059594102 0.33089897 0.010776303 -0.17472035
000180 9a 6c 25 bd 51 7b 94 3e e1 3e 09 be f7 01 90 be
       -0.040386774 0.29000333 -0.13402893 -0.281265
000190 ff ae 2e 3e 52 6d 6d be 0e 54 72 3e 40 1a 08 3e
       0.17058943 -0.23186234 0.23664877 0.13291264
0001a0 31 80 df 3e b7 ac 32 3e 9b 4e 8f 3d 21 17 a9 3e
       0.4365249 0.17448698 0.06997415 0.33025458
0001b0 41 01 f6 3d 70 bb 3f 3d f5 cc 21 3e ec 25 13 be
       0.12011958 0.046809614 0.15800841 -0.14369935
0001c0 3b 78 bf 3e ea 30 44 be 14 79 0f bd 83 0b 93 3e
       0.37396416 -0.19159284 -0.03502758 0.2871972
0001d0 b5 72 ce 3e ad 8c cf 3c 55 54 4e bf 3c c4 df 3d
       0.4032189 0.025335634 -0.8059743 0.109261006
0001e0 27 eb 50 bf e6 cb 1a bf aa db cb 3e 60 5b 7e 3f
       -0.81608814 -0.60467374 0.39816028 0.9935818
0001f0 61 22 2e bf a8 96 2d 3b 45 7f 90 be 9e 7b 88 3e
       -0.6802121 0.0026487503 -0.282221 0.26656812
000200 53 a8 0b be 60 04 16 3d cc a9 1b 3e 15 05 db 3d
       -0.1363843 0.036625266 0.15201491 0.10694329
000210 c4 6e a5 3e 3d 0b bd 3e d8 3e dd 3e 42 59 1b be
       0.3231107 0.36922637 0.43212008 -0.15170768
000220 b1 97 11 bd 81 dd 81 3e d3 cb 8d 3e a7 45 49 be
       -0.035545055 0.25364307 0.27694568 -0.19655477
000230 ba 50 39 bd b6 75 f3 3e 1d e9 ae 3d 7d 92 29 3b
       -0.045243002 0.47550744 0.085405566 0.0025874667
000240 37 06 07 3e 21 69 79 3e da f5 87 be 43 c5 d5 bd
       0.13185965 0.2435651 -0.26554757 -0.10438015
000250 cb 6d 98 3d be e7 b5 3c 8f e4 52 3e 89 34 c4 3e
       0.07442816 0.02220523 0.20595 0.3832133
000260 65 1f b0 3e 56 36 a0 3d 5a 93 75 be 1f c5 1a bf
       0.34398952 0.07822864 -0.23981991 -0.6045703
000270 76 3f 85 3d e6 7e b2 bb 4d fe ab 3e 08 86 ff bd
       0.06506245 -0.0054472564 0.33592454 -0.12476736
000280 64 55 7d 3e c5 cb 71 3c c7 09 af 3c fe b5 6d 3d
       0.24739605 0.014758055 0.021366967 0.05803489
000290 68 9e 89 be 3b fe b3 be 3b 9d ec bc 93 91 45 be
       -0.26878667 -0.351549 -0.028883567 -0.19293813
0002a0 fc 57 36 bd b4 c9 aa be 66 e8 fe 3d 84 49 a9 3d
       -0.044517502 -0.33357012 0.1244667 0.08265975
0002b0 61 8c 2a 3e 2b 39 a7 be ae 02 73 be 79 4e c3 3d
       0.16655113 -0.32660803 -0.23731491 0.09536452
0002c0 6b 91 90 be 9a 5c 88 3d 1d 24 1b 3e 9e 00 51 3e
       -0.28235945 0.06658287 0.15150495 0.20410392
0002d0 1f 13 bd 3c b8 27 76 be b8 70 a6 bc 6f e3 32 bd
       0.023080407 -0.24038589 -0.02031742 -0.04367393
0002e0 69 3f 76 be 83 fa a5 bd da ad 80 3d 76 f8 e1 be
       -0.24047627 -0.08104422 0.062831596 -0.44134873
0002f0 99 09 b2 3d 0d c6 60 be 49 e3 a0 3c 38 c1 95 3e
       0.08693237 -0.2195055 0.019639628 0.29248977
000300 9c b4 fb be 63 07 b6 3d a7 28 89 bd a4 7a a0 be
       -0.49161232 0.08888128 -0.06697207 -0.31343567
000310 bf d0 8f be 6a d8 da 3e f9 d2 0c 3f 48 40 90 3d
       -0.28088948 0.42743236 0.5500942 0.07043511
000320 5b 73 db 3e c3 31 64 3e 5f c9 80 be 0f 34 d7 be
       0.42861447 0.22284608 -0.25153634 -0.42031905
000330 b5 a3 67 3e 7c 8b 06 3d ed a3 a0 3e 60 36 ff 3c
       0.22621043 0.032847866 0.31375065 0.031153858
000340 7b e0 29 3f 14 76 14 bf 7d 9e b5 be eb b5 1f 3e
       0.66358155 -0.5799267 -0.3547248 0.1559674
000350 e4 61 54 bf dd e4 5d be ae 51 5a bd 66 92 f1 bd
       -0.8296187 -0.21669336 -0.053300552 -0.117955014
000360 ee 7a 06 bf 38 b2 8c be 8e 87 f6 bb 22 10 a9 3e
       -0.52531326 -0.2747972 -0.0075234836 0.3302012
000370 21 b4 12 3f 64 03 83 3d d1 e8 ed bd 19 9c c4 3e
       0.57306105 0.06397131 -0.11616672 0.38400343
000380 5b 57 af be 6a 74 62 3e 5e 74 df 3d 50 41 65 3d
       -0.34246334 0.22114721 0.10910867 0.05597049
000390 0e 12 a6 3e 72 ff 16 3f ad 06 4c 3d f5 71 c5 3e
       0.3243565 0.5898353 0.049811054 0.38563505
0003a0 c9 e3 02 be c9 75 cb 3d cf 66 70 3e bb bf 81 3d
       -0.12782206 0.09934575 0.23476718 0.06335398
0003b0 b0 b5 28 be ca 85 a4 bc a5 d1 db 3e c1 7a a0 be
       -0.16475558 -0.020083327 0.42933384 -0.31343654
0003c0 8f 7b 89 be 26 d5 64 be d8 78 ae be 27 a3 8b 3e
       -0.2685208 -0.22346935 -0.3407657 0.27272913
0003d0 9b df 11 3e 0c c2 16 be a5 db 8d be 8c 5a 46 3e
       0.14245455 -0.1472246 -0.27706638 0.19370478
0003e0 8e a2 2e bf 31 60 15 be 7d 39 6c 3e 03 ef 8f 3e
       -0.6821679 -0.14587475 0.23068805 0.2811204
0003f0 fc 1d 46 3e 4c 01 0a 3f fb 2f 5d be 41 f1 f2 3d
       0.19347376 0.5390823 -0.21600334 0.11862422

h2h.bias f4 [16]
000000 9a c8 23 be cf 75 b4 3e 7b 59 8c 39 66 88 a4 3e
       -0.15994492 0.3524613 0.0002676955 0.32135314
000010 49 e8 c5 3d 06 47 dd 3d 7e 4b 88 bd 91 54 68 bd
       0.096634455 0.10804562 -0.06655024 -0.056721274
000020 9b a1 87 bc fd 4a e3 3d 28 2b ce bc 98 ea 9a bd
       -0.016556552 0.11098287 -0.025167063 -0.075642765
000030 39 53 0e be 90 20 a2 3e e8 54 d7 be 7d 67 82 3e
       -0.13898934 0.31665468 -0.42056966 0.2546958

h2o.weight f4 [2, 16]
000000 31 26 1a 3f 30 fa 80 bf 96 36 dd be d3 e8 15 3f
       0.60214525 -1.0076351 -0.43205708 0.58558387
000010 22 bf 0c bf 04 af b9 be 53 b5 f9 be 01 17 55 bf
       -0.54979146 -0.3626634 -0.48771152 -0.83238226
000020 f0 c3 91 be 98 84 18 bf fd 50 ee 3e 16 d7 c1 3e
       -0.284698 -0.5957732 0.46546164 0.3785941
000030 3e 72 e8 3e a8 e4 0b 3f 7a e8 8c bf f2 0c 88 3f
       0.4539966 0.54645777 -1.1008446 1.062895
000040 43 96 46 bf 28 a9 90 3f e5 3c 2d 3f 49 dc 27 bf
       -0.7757303 1.1301622 0.6767104 -0.65570503
000050 61 e9 68 3f 8b a2 f7 3e f7 89 9d 3e 38 ec 1f 3f
       0.9098111 0.48366198 0.3076932 0.62469816
000060 28 7b b9 3e 78 83 ba 3e fd c0 0b bf c4 8f 95 bd
       0.36226773 0.36428428 -0.5459135 -0.07302812
000070 a6 bc af be 2e 85 23 bf 91 72 8f 3f 27 db 2f bf
       -0.34323615 -0.6387509 1.1206838 -0.68693775

h2o.bias f4 [2]
000000 66 c5 6b 3d 21 72 75 3e
       0.0575613 0.23969318
