checkpoints/model_epoch_2.pth (torch, 4866 bytes, 5 tensors)

i2h.weight f4 [16, 19]
000000 e5 1b f6 be 5f d1 9a 3d 35 7d 05 be 28 8b 00 3d
       -0.48068157 0.075594656 -0.13036044 0.03138271
000010 16 0d 9d be a1 d4 2b be 8b 22 fb bd f8 54 34 be
       -0.30674046 -0.1678033 -0.12262448 -0.17610538
000020 9c 9c ee 3e 30 83 7e bd 7a 4a ea be 35 ee f8 bf
       0.46603858 -0.06213683 -0.45759946 -1.9447695
000030 3e a0 54 bd b3 07 3d 3e c9 f7 64 be e6 47 00 be
       -0.05191063 0.18459968 -0.22360148 -0.12527427
000040 d1 77 d0 be 7d 45 96 3e 62 7c 4b bf 19 91 88 3e
       -0.40716413 0.2934989 -0.7948667 0.266732
000050 d1 c6 91 be a9 64 ef 3e e0 4a 6d be 2a 0f 4d 3e
       -0.28471997 0.46756485 -0.23173094 0.20025316
000060 de c8 5e bd 47 53 39 3e 87 9e 21 3e 98 52 03 bf
       -0.05439078 0.18098174 0.1578313 -0.51297903
000070 ae 62 99 bd 18 a7 0d 3f 27 7f 08 40 c5 79 ff bd
       -0.07489525 0.5533309 2.1327608 -0.124743976
000080 79 a0 6d be d2 40 37 3e 0e 3b 99 be 50 1f 84 3e
       -0.23205747 0.1789582 -0.29927868 0.2580514
000090 1a 5d f3 bc 66 4d 40 3f 4b 5c 8a 3e f9 af 9d bd
       -0.02970748 0.751181 0.2702354 -0.0769958
0000a0 53 c1 c5 3e 96 15 dc bd 9c b7 e6 3d ac a9 f4 3d
       0.38624057 -0.10746305 0.112654895 0.11946425
0000b0 da 9f 44 3e 3f 69 cc 3d 45 8a d8 bd ec 77 f6 3d
       0.19201604 0.099810116 -0.10573248 0.12034592
0000c0 ff d5 14 3f 39 fe f7 3f 12 bb da 3d 75 6f c1 bd
       0.5813903 1.9374458 0.10680212 -0.09445087
0000d0 bd 60 6c 3d d1 5d da be 25 92 84 3e a0 20 3d 3d
       0.057709444 -0.426497 0.2589275 0.04617369
0000e0 1f cc 09 3f fa 35 87 be 50 14 68 3e dd cb a5 3d
       0.5382709 -0.26408368 0.22663999 0.080955245
0000f0 8e 32 52 3d a5 d8 fe 3c db 10 87 be 0e 45 4f be
       0.051317744 0.031109164 -0.26380047 -0.20241186
000100 08 67 2f be f8 86 a0 3d 15 1a b4 bc 0d 7b c0 be
       -0.17129147 0.07838243 -0.021985093 -0.3759388
000110 4e 29 05 c0 05 2c 93 3c ec 82 79 bd 31 03 43 3e
       -2.080646 0.017965326 -0.060915872 0.19044186
000120 e7 43 9a bc c4 71 aa be 13 db 21 3e 04 67 de be
       -0.018831206 -0.3328992 0.15806226 -0.4343797
000130 eb 9c 07 3e 02 06 0e be fa 95 39 3d 12 9d ec bb
       0.13243453 -0.1386948 0.045309044 -0.0072208727
000140 d4 55 15 3e fd 27 25 be b6 dc 9b bd d4 b8 89 bd
       0.14583522 -0.16128536 -0.07610457 -0.06724706
000150 fd 14 01 be c3 0b 24 3e ea bf 57 3e 90 6c d8 3f
       -0.12605663 0.16020112 0.21069303 1.6908131
000160 d5 73 91 be 66 dd 88 be 91 62 09 3e 7f 27 a6 3d
       -0.28408685 -0.26731414 0.13416506 0.08113002
000170 5f c5 84 3e 76 50 3d be aa 2f 3f 3f 0f 45 97 3e
       0.25931832 -0.18487725 0.74682105 0.29544875
000180 a4 22 fb 3d 00 0c a4 3e de a9 1b be 35 24 8f 3e
       0.122624665 0.32040405 -0.15201518 0.2795731
000190 27 93 89 bc 09 ca b5 3e d1 b0 b2 3d 0b 9e ce bd
       -0.0167938 0.35505703 0.08725131 -0.10088738
0001a0 c7 1b 7f bc bb f5 f1 3d e7 99 ee 3f b0 76 0e 3e
       -0.0155705875 0.118144475 1.8640717 0.13912463
0001b0 3c 3e 6d be 79 d0 a7 3d 67 70 02 be 48 39 24 3e
       -0.23168272 0.0819406 -0.1273819 0.16037476
0001c0 19 8a fc 3d 81 2d db 3e 1a 49 a9 3e c9 74 30 be
       0.123310275 0.42808154 0.33063585 -0.1723205
0001d0 4b cf 9d bd 96 60 48 bd 32 98 78 3d 1f 6b fa bd
       -0.077055536 -0.048920237 0.06069202 -0.12227463
0001e0 16 93 1c 3e 28 e4 3e 3e dc 0b 89 be 29 2e d6 bd
       0.15290484 0.18641722 -0.2676686 -0.10458023
0001f0 10 98 a3 bb 69 bb e8 3f 9a c4 7a bd 7c ba 9b bc
       -0.0049924925 1.8182193 -0.06122265 -0.019009821
000200 16 4e 3a 3e 55 6a 65 bd 7a b4 02 3e 71 40 d2 bd
       0.1819385 -0.05600961 0.12764159 -0.102661975
000210 f9 ce 3d 3f 8e d8 f6 3d dd 23 83 3e 03 d9 fa bd
       0.7414394 0.12053023 0.256133 -0.12248423
000220 44 cb 14 3e 76 36 8f 3e 4f 00 20 3e 5c 5e dd 3c
       0.14530665 0.27971238 0.15625118 0.027022533
000230 b6 5f bc 3d c8 a5 dd bd 68 3b d8 bd f4 d0 16 be
       0.09197943 -0.10822636 -0.10558206 -0.14728147
000240 87 ba 5d 3f 9d 59 57 3e 09 59 86 bd 0c 97 6f bc
       0.86612743 0.21030279 -0.06559951 -0.014623415
000250 93 c5 c3 3e 3f 91 81 3e ef 40 01 3e 18 c3 f6 3e
       0.38236675 0.25306126 0.12622426 0.4819572
000260 2f 2a d9 3e 07 a2 91 bd d4 d4 f1 3d 6f c3 7f be
       0.42414996 -0.071109824 0.11808172 -0.24976896
000270 12 9f 8f 3e 31 4f c8 bd fc 9c 38 3e 44 96 d6 bd
       0.2805105 -0.097807296 0.18028635 -0.1047788
000280 80 21 69 bd 8d a3 a8 3d 19 d5 07 3e fb d9 f8 3f
       -0.056916714 0.0823432 0.13264884 1.9441522
000290 24 57 6f be 1c 7f 25 3d 10 8a 98 bd b8 7d 96 be
       -0.23373085 0.040404424 -0.07448208 -0.2939279
0002a0 ee cf a3 3e 24 ba f5 bd 8d 7d 05 3f 73 d9 e8 3e
       0.31994575 -0.11998394 0.521447 0.454784
0002b0 09 86 aa bd a8 79 b4 3e e0 de d0 bc 8c ef 90 3d
       -0.083263464 0.35249066 -0.0254969 0.0707694
0002c0 1a c1 53 3d 93 bb 1d 3e e3 0a 09 3e 46 21 45 be
       0.051697828 0.15403585 0.13383059 -0.19250974
0002d0 c0 7e 49 be 98 30 32 3e 30 2f e9 3f 9d d1 1f 3e
       -0.19677258 0.1740135 1.8217525 0.15607305
0002e0 fb 5b ab 3d fd 93 26 3e 2e c3 3f be e1 39 a4 3d
       0.08367153 0.1626739 -0.18726799 0.08018852
0002f0 0c f1 d5 3d 7d d0 1c 3f 1d 64 02 be 78 3d 01 3e
       0.10446367 0.6125563 -0.12733503 0.12621105
000300 d3 ee 55 be 74 9e b5 3c e5 04 d0 bb 92 c4 83 3d
       -0.20891885 0.022170283 -0.0063482397 0.06433977
000310 34 87 ee 3d 64 56 ec 3d 5d 8a 22 3d c6 bf 3a be
       0.11646882 0.11539915 0.039682735 -0.18237218
000320 d3 f3 cb bc ad 97 e3 bf f7 1d 7d 3e 1a 1e 3c 3d
       -0.024896538 -1.7780663 0.24718462 0.045927145
000330 99 f0 65 bd 27 e9 39 be 08 6d 48 bd 1b 62 3d 3d
       -0.056137655 -0.18155347 -0.048932105 0.04623614
000340 ef 8a c2 be 30 2a bb be b8 41 4e 3e 07 26 a3 bd
       -0.37996623 -0.36555624 0.20142257 -0.079662375
000350 ef 47 89 3e 22 3c 61 bd d7 99 59 be a0 25 3c 3d
       0.26812693 -0.054988988 -0.21250091 0.04593432
000360 6e 0d 17 be b3 29 c8 3d 6f b2 d4 3d 1b 73 a3 be
       -0.14751217 0.097735785 0.10385596 -0.31923756
000370 fa 38 f1 bf 35 58 9f 3e 32 b8 02 3b f1 17 05 be
       -1.8845513 0.31121984 0.0019946215 -0.12997414
000380 41 a9 5c 3e 4e 7a 26 bd a3 f9 a0 3c 45 e4 be be
       0.2154894 -0.040643983 0.019650286 -0.3728353
000390 fd 2e 93 3e a0 b4 b4 bd 3c 25 89 3e 7f ee 09 be
       0.28746787 -0.08823514 0.2678622 -0.13469885
0003a0 51 9a a6 bd b3 7f f3 3b 65 2d 1d 3e eb 90 d5 3d
       -0.08134902 0.0074309944 0.15349348 0.104280315
0003b0 2d 6e a2 bd e2 d9 2e 3e 14 5d ba 3e 74 01 99 be
       -0.079311706 0.17075303 0.36399138 -0.2988392
0003c0 d5 18 8d be 57 2d 23 be c5 43 20 3e a8 f9 e4 3c
       -0.27558008 -0.15935265 0.15650852 0.027951077
0003d0 b5 76 4e 3e ed 4a 96 bd 17 34 9f be 4c e6 3b bf
       0.2016247 -0.0733851 -0.3109443 -0.7339828
0003e0 67 4b 44 3e ae 48 8b be 88 c0 06 bd 47 e9 3c 3d
       0.19169389 -0.27203888 -0.032898456 0.046120908
0003f0 96 0f 83 bc bb 97 bd be ae 2f 61 be d8 c6 0a 3f
       -0.015998643 -0.37029824 -0.21990845 0.5420966

h2h.weight f4 [16, 16]
000000 a8 16 c1 3d ca 4d 6b be 22 71 58 3d b7 1e 5f 3e
       0.094281495 -0.22978893 0.052842267 0.2178906
000010 e2 32 98 bd ce d4 71 3d da c8 12 be f4 8d 5f be
       -0.0743158 0.059040837 -0.14334431 -0.21831495
000020 de 6e f3 bd a2 75 8d be 0c 49 c0 3d aa 91 62 3d
       -0.118863806 -0.2762881 0.093889326 0.055314697
000030 17 1b 86 bd 7f b2 1a be 0c 86 8e 3c da fd b7 3e
       -0.06548136 -0.15107153 0.017397903 0.3593586
000040 9a 21 0f 3d 3f 99 bb bd 35 a9 01 be 43 29 87 bd
       0.034944154 -0.09160089 -0.12662204 -0.06599667
000050 d9 c0 f2 3d 88 6f 07 bd 2b 50 63 3e e4 7d 2b 3e
       0.11853189 -0.03306535 0.2219855 0.16747242
000060 ac 74 a9 3e 31 9c 6b 3e 72 2a 76 be f9 59 b8 be
       0.33096826 0.23008801 -0.24039629 -0.36006144
000070 0f f9 ca bd ea 7c 19 be 6a c4 98 bd 3c 60 c1 be
       -0.099107854 -0.14989057 -0.07459338 -0.37768734
000080 48 7c 31 be 48 6d 7b bd 70 44 4a 3d d6 90 40 3e
       -0.17332566 -0.061383516 0.049381673 0.1880525
000090 df ed 7a 3d b9 3d c3 3d 71 af 2c bc 73 73 9f bd
       0.061262008 0.09533257 -0.010539875 -0.07785692
0000a0 e1 e7 61 3e c4 10 93 3e 8f 78 3f bd af aa 35 be
       0.22061111 0.2872373 -0.046745833 -0.17740892
0000b0 fa 34 fb 3d 39 2a 25 3d b2 25 46 3e 32 37 9b be
       0.12265964 0.04032347 0.19350317 -0.30315548
0000c0 97 73 b3 3e 27 84 b1 3d de e8 eb bc dc 42 98 3e
       0.35049126 0.08667784 -0.028797563 0.2973851
0000d0 49 a5 05 be 12 f2 1d be 71 8c c5 3d 19 0e 24 be
       -0.13051333 -0.15424374 0.09645928 -0.16021003
0000e0 15 9a fd bd b6 60 98 be 8e 40 32 3e 4e e0 62 3d
       -0.123829044 -0.29761285 0.17407438 0.055389695
0000f0 82 d2 e7 bd 37 5c 55 3e 08 65 e1 bc d6 4e cd 3e
       -0.11319448 0.20835958 -0.027513996 0.4009921
000100 5c 19 ce bd 5f fe f3 bc 92 0f 79 3e 86 e4 7a 3d
       -0.10063431 -0.02978438 0.24322346 0.061253093
000110 10 8a 93 3d a7 27 8c 3e e3 57 af 3c 25 4b 07 be
       0.07204068 0.27374002 0.021404212 -0.13212259
000120 e3 d5 d4 bd f4 f4 97 bc 4e 65 89 be 09 d8 23 3e
       -0.10392358 -0.01854942 -0.26835102 0.1600038
000130 f2 91 e8 bd 03 c2 3b be e4 1f 06 be de 49 19 be
       -0.11355962 -0.18335728 -0.13098103 -0.14969584
000140 7a 9b 2b bd 4f 0b 24 be 5c 66 18 3e 1a 13 19 be
       -0.04189632 -0.16019939 0.14882797 -0.14948693
000150 17 90 e3 3d d8 b5 ca 3c aa 46 9a 3d 89 b8 06 3d
       0.11111467 0.024744913 0.07533009 0.03289083
000160 61 b8 2c 3e a3 46 32 3e c7 23 85 be 8f 73 80 bd
       0.1686721 0.17409758 -0.26003858 -0.06272041
000170 d6 d5 e4 bc 8e 80 6f 3e 65 0e 13 3e de 7d 08 be
       -0.027933996 0.23388883 0.1436096 -0.13329265
000180 b6 fe 8b be c7 9c 87 3e b9 e3 3c bd cb 9b 9d be
       -0.27342767 0.264868 -0.04611561 -0.30782923
000190 bf 60 83 3e c1 7f 2d be 04 1b 04 3e 54 c8 85 3e
       0.2565975 -0.16943265 0.1290093 0.261294
0001a0 50 2c 53 3e 7f 14 5c 3e 43 0a ec bc 9f ac 00 3e
       0.20622373 0.21492194 -0.028813487 0.1256585
0001b0 c5 82 34 3d 31 0b 40 bc 51 6a 1d 3e 83 df 02 be
       0.044070024 -0.011721418 0.15372588 -0.12780575
0001c0 dd 85 b5 3e bc 1c 8d be 43 03 2b bd e8 ae 29 3e
       0.35453692 -0.27560985 -0.041751157 0.16570628
0001d0 f3 0b 34 3e 8c e9 5f bd b5 69 d2 be ba 21 dc 3c
       0.17582683 -0.054666087 -0.41096273 0.02687155
0001e0 9e d3 87 be 6a 4e c8 be df 25 25 3e 24 9e e2 3e
       -0.2652864 -0.39122325 0.16127728 0.44261277
0001f0 c8 b6 c3 be 23 eb bb 3b 99 91 6e be 9d b6 94 3c
       -0.3822539 0.0057348176 -0.23297729 0.018153483
000200 df 90 c7 bd 79 db 7b 3b 64 be 32 3e a5 30 93 3c
       -0.09744429 0.0038430376 0.17455441 0.017967531
000210 26 2e 5c 3e 5f 96 78 3e 02 7f 8f 3e 02 29 f6 bd
       0.21501979 0.24276112 0.28026587 -0.1201954
000220 20 13 5f bd 6a 60 7c 3e 6e 2a 05 3d 27 9f e7 bd
       -0.0544616 0.24646154 0.032511167 -0.11309653
000230 6c a8 02 be 9a aa 5a 3e a0 c9 a1 3d 93 f6 c8 3d
       -0.1275956 0.21354142 0.07899785 0.09812655
000240 36 ea aa 3d ca 08 67 3e f3 5b 01 be 7f 84 ea bd
       0.083454534 0.22561947 -0.12632732 -0.11451053
000250 7b 77 a1 3d b6 b7 1b 3c 85 3c 18 3e 6c 9b af 3e
       0.07884117 0.009504249 0.14866836 0.34298265
000260 cc 6d 50 3e 2a bd 2b 3d 24 4a fa bd 95 59 96 be
       0.20354384 0.041928448 -0.122211725 -0.2936522
000270 96 96 d9 3c d7 83 92 bd a7 14 a6 3e 91 8d e6 bd
       0.026561063 -0.07154053 0.3243763 -0.112574704
000280 5b 61 48 3e 14 cd cc 3d 02 cf 5c bc 70 1e d6 3d
       0.19568388 0.10000053 -0.013477089 0.10455024
000290 43 1e 23 be d0 43 6d be d3 70 a7 bc f5 f7 0a be
       -0.15929513 -0.231704 -0.020439541 -0.1357115
0002a0 dd 2b 09 be 60 68 36 be 28 e9 df 3d bc 06 49 3e
       -0.13395639 -0.17813253 0.10933143 0.19631475
0002b0 ca a0 23 3e 66 47 4e be 22 58 7c be a3 7c 5d 3d
       0.15979305 -0.20144424 -0.24642995 0.05407394
0002c0 7b 2b 29 be 16 e0 e7 bd 9b fb 87 3d 7a 6f 46 3e
       -0.16520493 -0.11322038 0.06639787 0.19378462
0002d0 d2 58 d3 bd 99 a4 5d be d5 84 6e bd 5d 1f ae 3d
       -0.103196755 -0.2164482 -0.058232147 0.08502076
0002e0 00 e8 86 bd 29 59 3b be 5a ce 51 3e b2 fa 5f be
       -0.06587219 -0.1829573 0.20488873 -0.21872976
0002f0 a8 52 a6 3d ba 3c 48 bd e0 01 36 3c 08 2c 6c 3e
       0.08121234 -0.04888604 0.0111088455 0.23063672
000300 e1 2d ab be 2e 08 1a 3d dc e3 e6 3c cc aa b4 be
       -0.3343344 0.037605457 0.028184824 -0.35286558
000310 a6 fb 16 be 4f 96 93 3e 1e 2e c0 3e 39 c5 5b bd
       -0.14744434 0.28825614 0.37535185 -0.053654883
000320 5c 13 c5 3e a4 08 a8 3d 99 cb 4e bc 81 49 d1 bd
       0.38491333 0.08204773 -0.012621784 -0.10219098
000330 c3 2f db 3d b8 64 0c be 83 c0 b7 3e b8 7b 92 3b
       0.10702469 -0.13710296 0.35889062 0.004470315
000340 68 15 8e 3e 86 dd ae be d1 f2 a0 3d ed 9b 36 3e
       0.27750707 -0.34153384 0.078588136 0.17832918
000350 e7 00 a1 be 78 b6 33 be 3c 44 dd bd 7b 1e 11 3e
       -0.31446 -0.17550075 -0.1080403 0.14171784
000360 f8 56 e1 be 78 d2 5c 3d b2 1f 1d be 06 33 d8 3c
       -0.44011664 0.053911656 -0.15344122 0.026391517
000370 cd f5 40 3e 53 c0 bf bd 79 42 70 3e 50 d8 06 3e
       0.18843766 -0.09362855 0.23462857 0.13168454
000380 ce 70 69 be fb c1 8c 3e 40 31 63 3e f2 4d 89 3d
       -0.22796938 0.27491745 0.22186756 0.0670432
000390 85 84 01 3e 17 88 b2 3e fb 45 39 bd 36 18 74 3e
       0.12648208 0.34869453 -0.045232754 0.2383736
0003a0 76 7f 04 3e c1 5e 2d 3e c9 0a d3 3d 61 6a 11 be
       0.12939247 0.16930677 0.103047915 -0.14200737
0003b0 66 4f 41 be fd 26 19 be e2 9f ce 3d 93 7e 5a be
       -0.18877944 -0.14956279 0.10089089 -0.21337347
0003c0 d5 96 07 be b7 61 62 be ad f7 80 be 80 50 3e 3e
       -0.13241132 -0.22107588 -0.25188962 0.18585396
0003d0 5d 7f 1c 3d 44 57 79 be 62 1e 92 be 12 25 ec 3d
       0.0382074 -0.24349695 -0.28538805 0.11530508
0003e0 4e 81 9b be 1b 61 4a be be 12 43 3e 9a 4e 19 3e
       -0.3037209 -0.19763605 0.19050118 0.1497139
0003f0 44 cf 25 3e 93 77 cf 3d a3 34 e0 3c ea 74 c1 3d
       0.16192347 0.10130229 0.02736885 0.09446128

h2h.bias f4 [16]
000000 13 71 49 bd 4f 4d 59 3e 8c 12 09 3b e3 9c 66 3e
       -0.0491801 0.21220897 0.0020915596 0.22520785
000010 7c 45 9c 3d 61 d3 c3 3d d7 15 af bb ab c1 0b be
       0.076304406 0.09561802 -0.0053431797 -0.13648097
000020 64 f0 03 bc f7 d3 9f 3d 96 31 0f bd 24 30 6c bd
       -0.008052919 0.07804101 -0.0349594 -0.057663098
000030 52 df 01 be 7e 3a 3c 3e ff df 8b be 29 b8 3c 3e
       -0.12682846 0.18381688 -0.27319333 0.18429627

h2o.weight f4 [2, 16]
000000 3f 32 00 3f 5f bc 17 bf 4e 77 a2 be 9e d6 b7 3e
       0.5007667 -0.59271806 -0.31731647 0.35905927
000010 57 e2 4c be 23 90 99 be 7a 9d fc be 7e 36 84 bc
       -0.20008217 -0.2999278 -0.49338895 -0.016139265
000020 89 d7 b4 be d3 ed 0f bf b6 d9 97 3e cc 16 0e 3f
       -0.3532069 -0.56222266 0.29658288 0.55503535
000030 03 72 6a be 95 dc c8 3e a8 00 35 bf 64 7a 18 3f
       -0.22895055 0.3923079 -0.70704126 0.59561753
000040 c5 a3 2c bf d3 1c 37 3f e6 de 0f 3f 2c bf db be
       -0.6743739 0.7152836 0.5619949 -0.4291929
000050 b4 64 0f 3f cd 87 d7 3e 94 74 a0 3e 21 27 44 be
       0.56013036 0.42095795 0.31338942 -0.19155551
000060 21 92 dc 3e 9f 57 a9 3e ea 0e c1 be 4d 77 7f be
       0.43080238 0.33074662 -0.3770669 -0.24947853
000070 6d ef ad 3e ae 1f f8 be d1 14 3a 3f 98 ee 60 be
       0.3397173 -0.4846167 0.72688013 -0.21966016

h2o.bias f4 [2]
000000 50 e0 2a 3e eb 8a 05 3e
       0.16687131 0.13041274
