checkpoints/model_epoch_4.pth (torch, 4866 bytes, 5 tensors)

i2h.weight f4 [16, 19]
000000 6c aa c7 be af 0f 50 3d 4b 9d 01 be 88 ce a9 3d
       -0.3899721 0.050796207 -0.12657659 0.08291346
000010 07 05 87 be c6 ba 11 be e7 28 e3 bd c2 27 57 be
       -0.26371023 -0.14231405 -0.11091786 -0.2101126
000020 08 8b 05 3f 30 83 7e bd 9c 0a f4 be 64 eb 70 c0
       0.5216527 -0.06213683 -0.47664344 -3.764367
000030 d5 f9 b3 bd e6 7e 47 3e fb 8b 62 be 00 02 3c be
       -0.08787886 0.19482002 -0.22123711 -0.18360138
000040 ea d0 e3 be f4 90 a6 3e 59 08 91 bf 3d d6 6f 3e
       -0.44495326 0.32532465 -1.1330673 0.23421569
000050 0b c3 91 be 11 54 3d 3f 48 93 5b be 63 2e 19 3e
       -0.28469118 0.739564 -0.21442902 0.14959101
000060 fe 64 96 bd b3 dd 33 3e 52 95 13 3e 41 cb 0d bf
       -0.073434815 0.1756504 0.1441243 -0.55388266
000070 ae 62 99 bd d2 ad 30 3f e1 6c 78 40 74 d3 98 bd
       -0.07489525 0.6901523 3.8816454 -0.074622065
000080 4e 0f 75 be 5f 18 16 3e 6f 62 a6 be d4 ab 96 3e
       -0.2393162 0.14657734 -0.32496974 0.2942797
000090 27 8c 64 bd 15 59 87 3f 64 3c 4c 3e 01 1e 76 bd
       -0.055797722 1.0574061 0.19944912 -0.060087208
0000a0 59 29 ec 3e e9 65 9a bd 3c cc a9 3d 3e f2 f3 3d
       0.46125296 -0.07538969 0.08290908 0.119114384
0000b0 cd 50 56 3e b0 b7 b3 3d 8b e8 fa bd ec 77 f6 3d
       0.2092926 0.0877527 -0.12251385 0.12034592
0000c0 97 04 42 3f ac d0 64 40 c1 8d 39 3e 6d 3d 90 bd
       0.75788254 3.5752363 0.18120481 -0.07042966
0000d0 7f 0a 63 3d bf d5 07 bf b5 1d 7e 3e 0d 95 3e 3d
       0.05542993 -0.53060526 0.2481602 0.046528865
0000e0 cc b2 5d 3f 1a 77 9c be 17 12 8c 3e 0d a9 94 3e
       0.8660095 -0.30559617 0.2735755 0.29035226
0000f0 95 f7 a4 3d d5 3a d6 3a 81 9f 8d be 07 96 2e be
       0.08055035 0.0016344438 -0.27660754 -0.17049418
000100 c3 c2 55 be cd d4 07 3e 15 1a b4 bc ca f7 a7 be
       -0.20875077 0.13264771 -0.021985093 -0.32806236
000110 33 ee 75 c0 ed 93 9a 3d a3 5c e5 bd b1 e3 50 3e
       -3.8426635 0.07547746 -0.1119931 0.20399357
000120 6d 9d a5 bd 4f 0e a2 be 18 bb 29 3e 56 20 59 bf
       -0.08086667 -0.31651542 0.16575277 -0.84814966
000130 b3 fb 76 3d 37 93 8d bd 53 9a 85 3c e2 11 28 3d
       0.060298633 -0.06912845 0.01630894 0.04103268
000140 32 80 e3 3d 3e 79 44 be 11 ad b6 bd fa de 9a bd
       0.11108436 -0.19186875 -0.089197285 -0.07562061
000150 46 9b f5 bd c3 0b 24 3e 2d 03 76 3e ce 6f 60 40
       -0.11992507 0.16020112 0.24024649 3.506824
000160 ef 4b a7 be 18 5f 8e be 79 89 ff 3d 03 4e aa 3d
       -0.3267512 -0.27806926 0.12477393 0.08315661
000170 8d 5a 67 3e 8c 27 50 be ab f6 88 3f 30 50 7d 3e
       0.22593136 -0.20327586 1.0700277 0.2473762
000180 24 07 27 3e e8 de c3 3e fe ef fc bd 51 c2 83 3e
       0.16311318 0.38256 -0.123504624 0.2573419
000190 e7 5c 4b bd 42 1a b9 3e 2f 45 85 3d 80 db 86 bd
       -0.049649145 0.36152846 0.06507336 -0.06584835
0001a0 c7 1b 7f bc 3e 76 34 3e 92 d2 65 40 03 67 1f 3e
       -0.0155705875 0.17623231 3.5909772 0.1556664
0001b0 30 05 85 be 7f c8 a2 3d c3 eb 1c be bd 30 f5 3d
       -0.2598052 0.07948398 -0.15324311 0.11972187
0001c0 42 f6 e0 3d f8 7e 4b 3f 76 f6 a9 3e 0e 32 4c be
       0.1098447 0.79490614 0.33195847 -0.1994097
0001d0 26 b2 0b be af 84 ff bd 75 f3 16 3d fb 55 ec bd
       -0.13642177 -0.12476479 0.036853272 -0.11539837
0001e0 12 35 0a 3e 0b 5b 68 3e 50 3b a2 be 29 2e d6 bd
       0.13496807 0.2269098 -0.31685877 -0.10458023
0001f0 29 ea 6c bd 1e 49 64 40 e4 0d 9b bd 69 8d 58 3c
       -0.0578405 3.5669627 -0.07571009 0.013217309
000200 a2 e5 3e 3e ba b3 8a bd c7 30 f6 3d d0 61 ea bd
       0.18642285 -0.06772561 0.12021022 -0.114444375
000210 fc 10 88 3f 67 7b 47 3e 46 10 7d 3e 49 0d 35 be
       1.0630183 0.19480668 0.24713239 -0.17680849
000220 ba da e2 3d 9d dd a5 3e 10 6a 61 3e df 52 93 3b
       0.11076875 0.3239564 0.22013116 0.004495963
000230 a9 2b 17 3e 7f 2a 35 be 68 3b d8 bd 5d 3d 42 be
       0.14762749 -0.17691992 -0.10558206 -0.1896872
000240 44 2a 1a 40 12 d3 b3 3e 80 37 95 bd 9b f1 a0 b9
       2.4088297 0.3512197 -0.072859764 -0.00030697588
000250 62 2e 08 3f c1 ea 45 3e 9b 73 22 3e 3c 92 83 3f
       0.53195775 0.19327833 0.15864412 1.0279002
000260 17 a6 d7 3e 85 83 e8 bd f0 c2 04 3e a9 9a 89 be
       0.42118904 -0.1135321 0.12964988 -0.2687581
000270 a0 19 81 3e d4 33 b0 bd 3a c1 1b 3e 81 86 8e bd
       0.25214863 -0.086036354 0.15210429 -0.06959248
000280 22 7e 4c bd 8d a3 a8 3d 8b 1f e6 3d 85 14 69 40
       -0.049924977 0.0823432 0.11236485 3.6418774
000290 b0 8d 9f be cd e3 e1 3d 09 ea a2 bd 28 2b a6 be
       -0.31162786 0.11029778 -0.07954795 -0.324548
0002a0 57 73 99 3e 92 0d 06 be fc 20 58 3f 0f 4c cf 3e
       0.2997081 -0.13091114 0.8442533 0.40487716
0002b0 7d 15 04 be 37 c0 f4 3e b8 37 0d bd f4 6f 34 3d
       -0.12898822 0.47802898 -0.034476966 0.04405208
0002c0 09 ef 73 3c 2b 88 12 3e 44 0a 1a 3e 49 ec 2a be
       0.014888533 0.14309756 0.15042979 -0.16691698
0002d0 c0 7e 49 be d3 ae 58 3e f8 eb 62 40 37 03 53 3e
       -0.19677258 0.2116044 3.5456524 0.20606695
0002e0 14 96 d4 3d d5 4c 26 3e 0d 03 3a be 69 06 44 3d
       0.10380188 0.16240247 -0.18165226 0.047857676
0002f0 34 92 b4 3d d7 34 73 3f 30 b7 e4 bd 46 da 16 3e
       0.088169485 0.950025 -0.11167753 0.14731702
000300 bf 25 74 be 91 3b 3a 3d 0a 9f aa 3c 4e 53 c2 3d
       -0.23842524 0.045466963 0.020827789 0.09488545
000310 b4 0c f5 3d 33 57 1d 3e b2 25 96 3c c6 bf 3a be
       0.119653136 0.15365295 0.018328521 -0.18237218
000320 31 bb 9e bd f6 6a 5f c0 c1 f2 a1 3e 81 72 21 ba
       -0.07750548 -3.4909034 0.3163052 -0.0006158725
000330 28 ff 46 bd 39 4f 6b be 69 79 84 bc 8d dd 65 3d
       -0.04858318 -0.2297944 -0.016171174 0.05611949
000340 de 14 42 bf ee e1 c6 be 72 a0 6b 3e 24 e0 8c bd
       -0.7581309 -0.38844246 0.23010424 -0.06878689
000350 85 93 9e 3e 5b 68 77 bc 27 0d 66 be 26 a5 53 3d
       0.30971923 -0.015100564 -0.22465955 0.05167117
000360 a4 fa 05 be 46 a5 76 3d 6f b2 d4 3d 83 d7 a9 be
       -0.13083893 0.06021621 0.10385596 -0.33172235
000370 b3 3f 53 c0 02 ac ce 3e f9 c5 26 bd 09 ec 25 be
       -3.300763 0.40365607 -0.040716145 -0.16203322
000380 31 55 78 3e 0a ac 22 bd 4b e3 24 3d 98 d2 36 bf
       0.24251248 -0.03971485 0.040255826 -0.7141509
000390 3e 89 aa 3e 0c f9 f5 bd 9c fb 93 3e 68 3f 4d be
       0.33307832 -0.120103925 0.289029 -0.20043719
0003a0 15 b2 ee bd 44 94 0f bd 53 fd 3e 3e ce 51 0d 3e
       -0.1165506 -0.035053506 0.18651323 0.13800737
0003b0 61 04 db bd e2 d9 2e 3e 6b a1 a6 3e 03 33 f4 bf
       -0.106941946 0.17075303 0.32545027 -1.9078068
0003c0 d4 56 95 be 8a d2 d0 bd 65 ec 1f 3e cf ed 13 3d
       -0.29167807 -0.10196407 0.15617521 0.036115464
0003d0 06 94 95 3e 7f 36 bc bd 00 35 1a bf a9 85 49 bf
       0.29214495 -0.09190082 -0.6023712 -0.78719574
0003e0 3c f4 a3 3e 19 1c 5b be 4a e4 80 3c b0 c5 96 3c
       0.32022274 -0.21397437 0.015733857 0.018404812
0003f0 3a f0 09 be 02 23 be be e5 1d 87 be 5f cd f1 3e
       -0.13470545 -0.37136084 -0.26389995 0.47226998

h2h.weight f4 [16, 16]
000000 f2 68 cf 3d 46 51 8d be 09 a0 1a 3d 88 24 3f 3e
       0.101274386 -0.2760107 0.037750278 0.1866628
000010 9a ed ca bd 18 8c 61 ba eb 38 02 be 07 db 94 be
       -0.099086 -0.00086039444 -0.12717025 -0.29073355
000020 17 63 0e be 1b df 9d be 33 83 03 3e 82 62 ab bc
       -0.13904987 -0.30834278 0.12843017 -0.020920996
000030 df b4 d1 bc 4c a6 1d be 7e 61 5a bc da ca b5 3e
       -0.025598941 -0.15395468 -0.013328908 0.35506326
000040 dc 51 c0 3c f6 a2 eb bc 81 27 03 be e5 cb d6 bd
       0.023476534 -0.02876423 -0.12808038 -0.104881085
000050 65 05 c0 3d ed 7f 53 bd 68 81 81 3e b4 3f 57 3e
       0.09376029 -0.05163567 0.25294042 0.21020395
000060 a9 dc af 3e dd 1e 8b 3e 6e 93 92 be d7 b9 ea be
       0.34348038 0.27171984 -0.28628105 -0.4584491
000070 cc 63 b4 bd 4b 15 22 be f8 80 ec bc ff 9d da be
       -0.08808097 -0.15828435 -0.02887009 -0.42698666
000080 3b fc 3c be 82 4b be 39 04 fb a9 3d 77 3b 38 3e
       -0.18455593 0.00036295882 0.082998306 0.17991434
000090 a2 08 5e 3d 3e b6 d7 3d 65 b9 57 bc fa e5 82 bd
       0.05420745 0.10532807 -0.01316676 -0.06391521
0000a0 02 1b 5b 3e fd 77 be 3e 3f b1 65 bd 58 9b 45 be
       0.21397021 0.3720092 -0.05607724 -0.1929754
0000b0 24 11 b1 3d 00 b3 25 3d 85 9f 36 3e ff 41 a7 be
       0.086458474 0.04045391 0.1783429 -0.3266754
0000c0 8d 79 9f 3e ca aa 52 3d d3 99 ef bc 6e 8a af 3e
       0.31147423 0.05143241 -0.029248154 0.342853
0000d0 61 e6 f6 bd 50 91 b2 bd 5c c3 9e 3d 78 b2 11 be
       -0.1205566 -0.087191224 0.077521056 -0.14228237
0000e0 22 b9 48 be ec 40 9f be 74 fd 64 3e 0b 96 24 3e
       -0.19601873 -0.3110422 0.2236231 0.16072862
0000f0 32 b4 d5 bd 8e 93 85 3e 20 58 93 bd a8 ac f9 3e
       -0.1043476 0.26089138 -0.07194543 0.4876454
000100 26 47 a5 bd 33 0a 29 3b 1c a6 81 3e 10 c7 4d 3d
       -0.08070211 0.0025793433 0.25322044 0.05023867
000110 98 54 9a 3d 7e e6 99 3e 7c e4 c8 3b 88 95 f4 bd
       0.07535666 0.30058664 0.006130753 -0.11942583
000120 f6 01 d3 bd 27 e9 da 3b bb d2 9a be 13 b1 40 3e
       -0.103031084 0.006680626 -0.302389 0.18817548
000130 14 88 ed bd 64 99 30 be b8 b9 e7 bd 7b 09 23 be
       -0.115982205 -0.17246014 -0.1131472 -0.15921585
000140 83 3b 2b bd f9 34 03 be 14 9e 0d 3e ba b7 24 be
       -0.0418048 -0.12813176 0.13829833 -0.16085711
000150 da e1 bc 3d c9 10 c3 3c b1 92 72 3d 03 6f 7b 3d
       0.09222765 0.023811715 0.059221927 0.061385166
000160 a8 7e fe 3d da 1f 4a 3e c1 b5 9b be 29 8c 88 bd
       0.124265015 0.19738713 -0.30412105 -0.066673584
000170 c3 64 39 bd 8e 64 88 3e 7e 6b 00 3e ce 7a 16 be
       -0.04526211 0.26639217 0.12541005 -0.14695284
000180 39 7c 7c be ba af 8e 3e 1b d5 92 bd 80 9d ab be
       -0.24656762 0.27868444 -0.07169553 -0.335186
000190 f7 57 7a 3e 8c 89 49 be 49 cf 26 3e ac 7c 89 3e
       0.24447618 -0.19681376 0.1629001 0.2685293
0001a0 c6 76 60 3e 72 5a 57 3e 16 fb 33 bd a8 02 0e 3e
       0.21920308 0.21030596 -0.043940626 0.13868201
0001b0 26 36 5a 3d 94 b9 6c bc 79 28 28 3e 53 27 2b be
       0.053274296 -0.014448542 0.16421689 -0.1671422
0001c0 59 a7 b2 3e 03 11 7b be ef ec 26 bd 6e bc 63 3e
       0.348933 -0.24518208 -0.0407533 0.22239849
0001d0 34 4c 61 3e 3a 92 19 bd d9 4a 03 bf cb 8a 97 3d
       0.22001725 -0.03749297 -0.51286083 0.073995195
0001e0 c2 cc cd be e4 3a ea be 0a f2 8a 3e e5 cc 0e 3f
       -0.4019528 -0.45748055 0.27137786 0.55781394
0001f0 73 e3 e8 be 13 00 99 3d 25 db a9 be f6 a0 80 3d
       -0.4548603 0.07470717 -0.33175007 0.06280701
000200 9b 73 b6 bd 59 d7 3e 3d 7f 27 38 3e 70 7b 03 3d
       -0.08908769 0.04659209 0.17983817 0.03210014
000210 3f 2c 5f 3e ee 46 93 3e f9 d2 94 3e a1 bb ed bd
       0.21794222 0.28765053 0.2906721 -0.11608053
000220 e2 ba 84 bd 03 f8 8c 3e 4a e7 0b 3d 51 89 e3 bd
       -0.064809576 0.27532968 0.03415612 -0.111101754
000230 e4 49 fe bd 4f 9f 82 3e 2f d4 a9 3d 2e 87 a8 3d
       -0.12416437 0.25512168 0.08292424 0.082289085
000240 38 98 cc 3d 1c b5 6f 3e c5 5a 20 be 1a 77 fe bd
       0.09989971 0.23408931 -0.15659626 -0.124250606
000250 bf 5d 8f 3d 99 44 61 3b ec 17 1f 3e 36 29 bb 3e
       0.070003025 0.0034373163 0.15536469 0.3655488
000260 56 de 4c 3e 02 73 3d 3d e7 bd 18 be 1a f5 9b be
       0.2000669 0.046252258 -0.14916192 -0.30460435
000270 0a 7e b4 3c 82 e9 67 bd 26 fc a8 3e 4d f1 fe bd
       0.022032756 -0.056619175 0.33004874 -0.12448368
000280 d3 cf 34 3e 25 ce c3 3d 90 18 01 3c a5 76 f1 3d
       0.17657404 0.09560803 0.007879391 0.11790208
000290 15 27 33 be 04 70 68 be 44 3e ae bc 50 b2 1f be
       -0.17495377 -0.2269898 -0.021269925 -0.15595365
0002a0 ed 8b cb bd 6b cc 30 be ac a3 14 3e 96 cf 20 3e
       -0.09938798 -0.1726548 0.14515561 0.15704188
0002b0 ae 9f 29 3e de 04 65 be 03 5e 84 be a6 1e 94 3d
       0.16564819 -0.22365138 -0.25852975 0.07232408
0002c0 a8 b1 40 be c6 ba ed bd 8f e5 a9 3d e8 74 56 3e
       -0.1881777 -0.1160789 0.08295738 0.20943034
0002d0 ca 0a cc bd ab 67 6f be 71 75 76 bd c5 f7 3d 3d
       -0.09962995 -0.2337939 -0.060170595 0.04637887
0002e0 1a 22 78 bd e1 0d 3c be 4c 4c 56 3e 0b d7 82 be
       -0.060579397 -0.1836467 0.20927542 -0.2555469
0002f0 47 f3 ba 3d 3a d8 7a bd 96 a6 91 bb 0d d3 7b 3e
       0.09128433 -0.061241366 -0.0044449074 0.24592228
000300 ab 94 c1 be 2d 13 3d 3d d2 5d a8 3c ac 33 b6 be
       -0.37808737 0.046160866 0.02055255 -0.35586298
000310 38 34 2b be d6 84 9e 3e 46 f0 e0 3e a4 c9 d9 bc
       -0.16719139 0.3096072 0.43933314 -0.026585408
000320 a6 a7 e0 3e 6f 7d 19 3e 89 f7 f8 bd 59 ad 24 be
       0.43877906 0.14989255 -0.121565886 -0.16081752
000330 93 2c 1e 3e f5 0f 0e be 4e 58 d4 3e ff 2e d3 3b
       0.15446691 -0.13873275 0.4147362 0.0064448114
000340 ec e5 a1 3e 62 f6 d9 be 9c 1c 81 bd f0 4b 00 3e
       0.3162073 -0.42570788 -0.06304285 0.12528968
000350 20 fa c7 be d8 46 54 be 08 61 2c bd cc d3 bd 3d
       -0.39058018 -0.2073015 -0.042084724 0.09268913
000360 b0 fa 05 bf 27 40 5c bd 9e 9d 3a be ff 1a ac 3d
       -0.52335644 -0.053772118 -0.18224189 0.084035866
000370 10 65 ab 3e a1 c8 21 bd 13 66 5d 3e 14 e5 26 3e
       0.33475542 -0.039497975 0.2162097 0.16298324
000380 b6 ca 70 be ef 51 8e 3e 99 1c 68 3e 3c 07 91 3d
       -0.23514828 0.27796885 0.22667159 0.07081458
000390 5c 0c 3b 3e ac b6 ce 3e 10 db 88 bd 27 86 96 3e
       0.18266433 0.40373743 -0.06682408 0.29399225
0003a0 ed e2 7e 3d 9b 27 2b 3e 84 e3 84 3d f7 68 0a bd
       0.062228132 0.16714327 0.06488708 -0.03379151
0003b0 08 3e 5a be 9d 75 fd bd 8e 1d 36 3e 20 f3 72 be
       -0.21312726 -0.123759486 0.17784712 -0.23725557
0003c0 bd b3 06 be 6b 1f 96 be ad 0d a4 be 46 37 71 3e
       -0.13154502 -0.29320845 -0.32041684 0.23556241
0003d0 5c ae 3d 3d 2d 94 5f be 2e a9 9c be 29 c1 19 3e
       0.04630886 -0.21833868 -0.30597824 0.15015091
0003e0 45 8d c3 be f3 e6 78 be 5b 11 4a 3e ea 67 7a 3e
       -0.38193718 -0.2430685 0.19733183 0.24453703
0003f0 e4 dd 23 3e 97 f3 66 3e 0b c9 2a bd 8e b6 2e 3e
       0.16002613 0.2255386 -0.041695636 0.17061827

h2h.bias f4 [16]
000000 42 13 5a bd f7 8a 7a 3e 16 8b 83 3c d8 b0 7c 3e
       -0.053241022 0.24467073 0.016057532 0.24676836
000010 12 2b 9c 3d b6 70 cc 3d a8 f6 dc bc dc f7 cc bd
       0.076254025 0.099824354 -0.026973084 -0.10008213
000020 f7 c9 2b bc 3c 3a ae 3d 39 9c c7 bc e9 57 44 bd
       -0.010485164 0.08507201 -0.024366485 -0.0479354
000030 14 bb 10 be 00 40 48 3e 60 36 a2 be f1 64 44 3e
       -0.14133865 0.19555664 -0.3168211 0.19179131

h2o.weight f4 [2, 16]
000000 89 0d 08 3f 51 18 27 bf db 22 9d be 5e 33 ca 3e
       0.53145653 -0.6527148 -0.30690655 0.39492315
000010 97 15 6a be e1 e3 a5 be 55 61 03 bf 5c cf 64 be
       -0.22859798 -0.3240042 -0.5132039 -0.22344726
000020 c3 77 98 be 19 2b 12 bf d1 17 9f 3e 52 5e 0c 3f
       -0.2977887 -0.5709701 0.31072858 0.5483142
000030 3b e5 ae bd 8c 8b bd 3e c5 97 3f bf a7 53 28 3f
       -0.08539816 0.37020528 -0.74840957 0.65752643
000040 98 7e 34 bf 40 78 46 3f b8 34 0d 3f b9 1b ee be
       -0.70505667 0.77527237 0.5515857 -0.46505526
000050 d5 b0 16 3f 66 da e3 3e 09 99 aa 3e 7e 10 81 3c
       0.58863574 0.44502562 0.33319882 0.015754934
000060 59 31 c0 3e ea cf ad 3e a7 4b c8 be 6e 94 78 be
       0.3753765 0.33947688 -0.39120218 -0.24275371
000070 c1 df 48 3e 62 ce ec be f8 ab 44 3f 2a 2a 90 be
       0.19616605 -0.46251208 0.76824903 -0.2815717

h2o.bias f4 [2]
000000 01 b9 f2 3d 84 0c 37 3e
       0.11851693 0.17875868
