checkpoints/model_epoch_5.pth (torch, 4866 bytes, 5 tensors)

i2h.weight f4 [16, 19]
0	0xbeb0eccc	-0.34555662
1	0x3cad9d5b	0.021193197
2	0xbde013b8	-0.10941261
3	0x3deb99f6	0.11503975
4	0xbe79f1ce	-0.24408647
5	0xbdecf760	-0.115706205
6	0xbdee4e26	-0.116359994
7	0xbe5b6078	-0.21423519
8	0x3f00a732	0.5025512
9	0xbd7e8330	-0.06213683
10	0xbefe0b95	-0.4961821
11	0xc0849492	-4.143136
12	0xbe074ae2	-0.1321216
13	0x3e742c76	0.23845086
14	0xbe6a8add	-0.22904535
15	0xbe5b37af	-0.2140796
16	0xbee45049	-0.44592503
17	0x3ea4f69d	0.322194
18	0xbfa82595	-1.3136469
19	0x3e7a6a60	0.24454641
20	0xbe8d8881	-0.27643207
21	0x3f68eedc	0.9098947
22	0xbe483c5b	-0.19554274
23	0x3e08e9b1	0.13370396
24	0xbdbb5ed5	-0.09148947
25	0x3e32c6ba	0.1745862
26	0x3df5e902	0.12007333
27	0xbf11e22f	-0.56985754
28	0xbd9962ae	-0.07489525
29	0x3f4d559a	0.8020874
30	0x4085d40c	4.1821346
31	0xbd431de7	-0.04763594
32	0xbe7bddf4	-0.24596387
33	0x3e0c564e	0.13704798
34	0xbeab050a	-0.33402282
35	0x3e99b70c	0.30022466
36	0xbd090367	-0.03345051
37	0x3f98eec5	1.1947867
38	0x3e34462b	0.17604892
39	0xbd0ff110	-0.035142004
40	0x3ef16fec	0.47155702
41	0xbd47b35f	-0.048755046
42	0x3da21f79	0.07916159
43	0x3de8f0fb	0.113740884
44	0x3e5855d0	0.21126485
45	0x3dae853a	0.08521505
46	0xbe078d50	-0.132375
47	0x3df677ec	0.12034592
48	0x3f590955	0.84779865
49	0x408360d0	4.105568
50	0x3e5c6e1c	0.21526378
51	0xbd7ccfe0	-0.061721683
52	0x3d40e9a9	0.047097836
53	0xbf1569fb	-0.5836484
54	0x3e7878ec	0.24264878
55	0x3da99816	0.08280961
56	0x3f852b7f	1.0403899
57	0xbeb1791f	-0.3466272
58	0x3e983146	0.29725093
59	0x3ecb94ff	0.39762112
60	0x3dd96059	0.1061408
61	0xbb95f290	-0.004576035
62	0xbe8e7808	-0.27825952
63	0xbe1d0ea3	-0.15337615
64	0xbe62f236	-0.22162709
65	0x3e1a177a	0.15048018
66	0xbcb41a15	-0.021985093
67	0xbe93c3a1	-0.2886019
68	0xc0880b70	-4.251396
69	0x3df7cd40	0.12099695
70	0xbe17229b	-0.14759295
71	0x3e4c8374	0.1997202
72	0xbdea26c2	-0.11433174
73	0xbe9e6d61	-0.30942824
74	0x3e065f35	0.13122256
75	0xbf866928	-1.0500841
76	0x3d004cdb	0.031323295
77	0xbc8b4225	-0.016999314
78	0xbcbf0727	-0.02331884
79	0x3dbaeb65	0.09126929
80	0x3dcd1bd1	0.10015071
81	0xbe52fc88	-0.20604146
82	0xbdcc9610	-0.0998956
83	0xbdab08fb	-0.08351322
84	0xbddac2b5	-0.10681669
85	0x3e240bc3	0.16020112
86	0x3e7c03c8	0.24610817
87	0x4084c526	4.149066
88	0xbeb2ccfe	-0.34922022
89	0xbe98c151	-0.2983499
90	0x3dfaef9c	0.12252733
91	0x3d9529b3	0.07283344
92	0x3e5a0c4d	0.21293755
93	0xbe3d29a4	-0.18472916
94	0x3fa325b8	1.2745886
95	0x3e7338bb	0.2375211
96	0x3e46a66e	0.19399425
97	0x3ebc39a7	0.36762735
98	0xbddc6738	-0.10761875
99	0x3e83022f	0.25587603
100	0xbd8415c5	-0.06449465
101	0x3ebdd3d3	0.37075672
102	0x3d9b0cbe	0.0757079
103	0xbd007710	-0.031363547
104	0xbc7f1bc7	-0.0155705875
105	0x3e5407ec	0.20706147
106	0x4089922f	4.2990947
107	0x3e313f87	0.1730939
108	0xbe996a8a	-0.29964095
109	0x3da81763	0.08207586
110	0xbe2ca106	-0.168583
111	0x3dd5d9f2	0.104419604
112	0x3e015db9	0.12633409
113	0x3f84cf7b	1.0375818
114	0x3ebfc907	0.3745806
115	0xbe6182d3	-0.22022562
116	0xbe427862	-0.18991235
117	0xbe3a3a23	-0.1818624
118	0x3cc3262f	0.023821918
119	0xbdf54c03	-0.11977389
120	0x3e05775e	0.13033816
121	0x3e831d59	0.25608328
122	0xbe9f071c	-0.31060112
123	0xbdd62e29	-0.10458023
124	0xbdc3c954	-0.09559885
125	0x407fa11f	3.994209
126	0xbdcfbd73	-0.101435564
127	0x3d0f141c	0.034931287
128	0x3e52d6ed	0.205898
129	0xbda04fe9	-0.07827742
130	0x3dfe68c4	0.12422326
131	0xbdb1de9b	-0.08685037
132	0x3f9db3ef	1.2320536
133	0x3e62c411	0.22145106
134	0x3e7563dd	0.23963876
135	0xbe67fb08	-0.22654355
136	0x3ddea4bb	0.108712636
137	0x3eabede8	0.33579946
138	0x3e7c5c4b	0.24644582
139	0xbc66e58e	-0.014092816
140	0x3e325f6a	0.1741921
141	0xbe3f468e	-0.18679258
142	0xbdd83b68	-0.10558206
143	0xbe6ad568	-0.2293297
144	0x40545120	3.3174515
145	0x3edb873a	0.42876607
146	0xbdc07d84	-0.0939894
147	0x3c5c82d4	0.013458926
148	0x3f1b4ed1	0.6066714
149	0x3e38b298	0.18036878
150	0x3e50dd8c	0.20397013
151	0x3fa5d729	1.2956287
152	0x3ee88bd5	0.45419183
153	0xbe0ff2de	-0.1405749
154	0x3dd7e1e8	0.10541135
155	0xbe90ee01	-0.28306583
156	0x3e71a515	0.2359813
157	0xbd99268a	-0.07478054
158	0x3e0ed120	0.13946962
159	0xbd6c4d00	-0.05769062
160	0xbcb15a9a	-0.021649648
161	0x3da8a38d	0.0823432
162	0x3dc490ea	0.09597953
163	0x407e69d8	3.9752102
164	0xbec205a1	-0.3789492
165	0x3e25da17	0.16196476
166	0xbd8bb743	-0.06822064
167	0xbeb79c0a	-0.35861236
168	0x3e98169f	0.2970476
169	0xbdce9e75	-0.10088817
170	0x3f8444a0	1.0333443
171	0x3ed02f13	0.40660915
172	0xbe1cfd3d	-0.15330978
173	0x3f030d90	0.5119257
174	0xbd2070a9	-0.03916994
175	0x3d01aa52	0.03165657
176	0x3a9088bd	0.0011027079
177	0x3e112074	0.14172536
178	0x3e311d9a	0.17296448
179	0xbe0c4242	-0.1369715
180	0xbe497ec0	-0.19677258
181	0x3e674511	0.2258494
182	0x40873e71	4.2263722
183	0x3e6cdb2d	0.23130484
184	0x3de2645c	0.11054298
185	0x3e2d06c5	0.16897114
186	0xbe38b001	-0.1803589
187	0x3d21cf84	0.039504543
188	0x3ddefdd1	0.108882554
189	0x3f945c26	1.1590621
190	0xbdfa4926	-0.12220983
191	0x3e26eb3f	0.16300677
192	0xbe6c6bd4	-0.23088008
193	0x3d6c1f1b	0.057646852
194	0x3d0682da	0.032839634
195	0x3dce699b	0.100787364
196	0x3df006bf	0.11720037
197	0x3e2909a7	0.16507588
198	0xbc463e37	-0.012099794
199	0xbe3abfc6	-0.18237218
200	0xbdbe0198	-0.09277648
201	0xc087b002	-4.2402353
202	0x3eb86fe1	0.36022857
203	0xbccf9ae1	-0.025342407
204	0xbd3635ad	-0.044484783
205	0xbe8cf945	-0.27533928
206	0xbc041c13	-0.008063334
207	0x3d0177ed	0.03160851
208	0xbf802da8	-1.0013933
209	0xbee8ba28	-0.45454526
210	0x3e855e50	0.26048517
211	0xbd4e05ef	-0.050298627
212	0x3eb72e81	0.35777667
213	0x3c28db15	0.0103061395
214	0xbe77f140	-0.24213123
215	0x3d5492f0	0.051897943
216	0xbe01ac14	-0.12663299
217	0x3c87d59b	0.016581347
218	0x3dd4b26f	0.10385596
219	0xbea63ff1	-0.32470658
220	0xc04951ac	-3.1456099
221	0x3ef5d9cc	0.48017728
222	0xbdbb0f50	-0.0913378
223	0xbe4fe6f8	-0.20302951
224	0x3e80813e	0.25098604
225	0xbd401d92	-0.0469032
226	0x3c8b5d03	0.017012125
227	0xbf6221c9	-0.883328
228	0x3eb4fbba	0.35348302
229	0xbe1da828	-0.15396178
230	0x3e9d0799	0.3066986
231	0xbe88e1ea	-0.2673486
232	0xbdf8b8fc	-0.12144658
233	0xbd56f0f0	-0.05247587
234	0x3e5a3bac	0.21311826
235	0x3e241655	0.16024144
236	0xbde23b98	-0.11046523
237	0x3e2ed9e2	0.17075303
238	0x3ea6ed19	0.32602766
239	0xc0348b11	-2.820988
240	0xbe934f99	-0.28771666
241	0xbda06807	-0.07832342
242	0x3e191650	0.14949918
243	0x3d38acda	0.04508672
244	0x3ea115c0	0.31461906
245	0xbe01ab7e	-0.12663075
246	0xbf5b84a8	-0.8574929
247	0xbf52a8d6	-0.82288873
248	0x3ed47432	0.414949
249	0xbe6ec0cc	-0.23315734
250	0x3c2ead31	0.010661409
251	0x3c820621	0.015872063
252	0xbe3af3ae	-0.18257019
253	0xbeb4e5a4	-0.35331452
254	0xbe62c6bc	-0.22146124
255	0x3f05704f	0.52124494

h2h.weight f4 [16, 16]
0	0x3df0f287	0.117650084
1	0xbe91389c	-0.28363502
2	0x3cfbfb19	0.030759381
3	0x3e35b127	0.1774336
4	0xbe0b6498	-0.13612592
5	0xbd01bb55	-0.031672794
6	0xbdfac7e9	-0.12245161
7	0xbeab1521	-0.33414558
8	0xbe18a25a	-0.14905682
9	0xbe993fa0	-0.29931355
10	0x3e13d365	0.1443611
11	0xbda68137	-0.081301145
12	0xbc2e0ba6	-0.010622894
13	0xbe190b41	-0.149457
14	0xbd65e1c4	-0.05612351
15	0x3eba4777	0.36382648
16	0x3cc81983	0.024426227
17	0xbb92c4d2	-0.004479029
18	0xbe0fa6c8	-0.14028466
19	0xbdf594ab	-0.11991247
20	0x3d930ee1	0.07180572
21	0xbd96ef9b	-0.0736992
22	0x3e8ad17f	0.27112958
23	0x3e71e61c	0.23622936
24	0x3eb95844	0.36200154
25	0x3e9437fa	0.28948957
26	0xbea7608b	-0.32690844
27	0xbf083047	-0.53198665
28	0xbda48fe5	-0.08035258
29	0xbe22c217	-0.15894352
30	0x3b918da4	0.0044419337
31	0xbee51686	-0.44743747
32	0xbe54f114	-0.20795089
33	0x3d1e125d	0.03859173
34	0x3dd9ab9f	0.10628437
35	0x3e2f0411	0.17091395
36	0x3d599e9b	0.053129774
37	0x3deea219	0.116520114
38	0xbb7ec90e	-0.0038877162
39	0xbd568508	-0.052372962
40	0x3e53aca8	0.20671332
41	0x3ed742d7	0.42043182
42	0xbcd339da	-0.025784422
43	0xbe4955e5	-0.19661672
44	0x3d9954f1	0.074869044
45	0x3d11144e	0.035419755
46	0x3e307ff6	0.17236313
47	0xbeb32195	-0.3498656
48	0x3e8a155b	0.26969418
49	0x3d0d19fe	0.034448616
50	0xbcc13b96	-0.023587983
51	0x3eb89907	0.3605425
52	0xbdd24f93	-0.10269084
53	0xbd023122	-0.031785138
54	0x3d9fc9bd	0.078021504
55	0xbe10525c	-0.14093918
56	0xbe80e45f	-0.25174233
57	0xbea5e08b	-0.32397875
58	0x3e91e7ca	0.28497154
59	0x3e754fdf	0.2395625
60	0xbdd39d53	-0.103327416
61	0x3e9974ef	0.29972026
62	0xbde76d86	-0.11300187
63	0x3f046892	0.5172206
64	0xbda3cfd8	-0.079986274
65	0x3ccd262e	0.02504262
66	0x3e87eb79	0.2654684
67	0x3d3a413d	0.045472372
68	0x3da711b1	0.08157671
69	0x3ea29674	0.31755412
70	0xbb8814be	-0.0041528633
71	0xbdebc437	-0.115120344
72	0xbdc74044	-0.097290546
73	0x3cb2a5cc	0.021807574
74	0xbe9ece36	-0.310167
75	0x3e51b06e	0.20477459
76	0xbde5f0df	-0.11227583
77	0xbe368a2e	-0.17826149
78	0xbdb91780	-0.090376854
79	0xbe2961a4	-0.16541153
80	0xbd5fac2b	-0.05460755
81	0xbde8f9bd	-0.11375759
82	0x3e01cd88	0.1267606
83	0xbe27ec2f	-0.1639869
84	0x3da5be74	0.08092967
85	0x3cd6a29b	0.026200583
86	0x3d5a53f4	0.05330272
87	0x3da6d3c8	0.08145863
88	0x3dd177b5	0.102279104
89	0x3e5c0116	0.21484789
90	0xbeaa3f1b	-0.3325127
91	0xbd90b02f	-0.07064854
92	0xbd4ea821	-0.05045331
93	0x3e92c84a	0.28668433
94	0x3dedfacf	0.116201036
95	0xbe1d3cab	-0.15355174
96	0xbe6449b1	-0.22293736
97	0x3e91432a	0.28371555
98	0xbdc01a9d	-0.09380076
99	0xbeb08501	-0.34476474
100	0x3e6e9353	0.23298387
101	0xbe60a602	-0.21938327
102	0x3e3cdf04	0.18444449
103	0x3e8bd288	0.2730906
104	0x3e793134	0.24335176
105	0x3e52d17f	0.20587729
106	0xbd7f6f74	-0.06236215
107	0x3e09b864	0.13449246
108	0x3d845606	0.0646172
109	0xbbaf548f	-0.0053506563
110	0x3e377dce	0.17919084
111	0xbe3f813a	-0.1870164
112	0x3eb82fec	0.3597406
113	0xbe81b3a9	-0.25332382
114	0xbd4ecfcd	-0.050491143
115	0x3e86034d	0.26174393
116	0x3e85aaaf	0.26106784
117	0xbd349588	-0.044087917
118	0xbf17d635	-0.5931123
119	0x3e06f938	0.13181007
120	0xbf028529	-0.50984436
121	0xbf051f2a	-0.5200068
122	0x3ead3cd9	0.33835486
123	0x3f2f8b94	0.68572354
124	0xbf055ce1	-0.52094847
125	0x3deca2c5	0.11554483
126	0xbeaf75da	-0.342696
127	0x3dc7c699	0.09754676
128	0xbdbd1cf9	-0.09234042
129	0x3d83ce8d	0.06435881
130	0x3e38572e	0.18002006
131	0x3d295230	0.041338146
132	0x3e688a1c	0.22708935
133	0x3e9fd163	0.31214437
134	0x3e9dc8a2	0.30817133
135	0xbdf03440	-0.11728716
136	0xbd7c7aeb	-0.06164066
137	0x3e918846	0.2842428
138	0x3d5287ce	0.051399045
139	0xbdfea757	-0.12434261
140	0xbde36c49	-0.11104638
141	0x3e92fdd0	0.2870927
142	0x3dc6f1f9	0.09714121
143	0x3d877dea	0.06615813
144	0x3dd41ffb	0.10357662
145	0x3e711556	0.23543295
146	0xbe3a7902	-0.18210223
147	0xbdfec462	-0.12439801
148	0x3d785426	0.060627125
149	0x39de4684	0.00042395678
150	0x3e23d89a	0.16000596
151	0x3ec2af89	0.38024548
152	0x3e51f824	0.20504814
153	0x3d484358	0.04889235
154	0xbe2fbedd	-0.17162652
155	0xbea95df2	-0.33079487
156	0x3cc4fd12	0.024046455
157	0xbd1da51b	-0.038487535
158	0x3eabca86	0.3355295
159	0xbe02ae66	-0.1276184
160	0x3e3a8f0c	0.1821863
161	0x3db7afea	0.089691
162	0x3cbb1d28	0.022841051
163	0x3df32ea1	0.11874128
164	0xbe37ccce	-0.1794922
165	0xbe7337eb	-0.237518
166	0xbcb2d741	-0.021831157
167	0xbe2feb63	-0.17179637
168	0xbda074dc	-0.07834789
169	0xbe39c986	-0.18143281
170	0x3e2627ab	0.1622607
171	0x3e103166	0.14081344
172	0x3e297bf4	0.1655119
173	0xbe7ba325	-0.24573953
174	0xbe88897c	-0.26667392
175	0x3da02f4e	0.07821523
176	0xbe4d154b	-0.20027654
177	0xbdcb0cac	-0.09914526
178	0x3dd0921a	0.10184117
179	0x3e5ec933	0.21756439
180	0xbdb339a1	-0.08751226
181	0xbe73ca02	-0.23807529
182	0xbd78d693	-0.06075151
183	0x3cab3a7c	0.020901911
184	0xbd7ac7af	-0.06122559
185	0xbe2eca68	-0.170694
186	0x3e40e3be	0.18836877
187	0xbe8b55ad	-0.27213803
188	0x3dbec445	0.09314779
189	0xbdad509d	-0.084626414
190	0xbc81437e	-0.015779253
191	0x3e82d35c	0.2555188
192	0xbecbd3b4	-0.39809954
193	0x3d4e1bd0	0.050319493
194	0x3c3546e0	0.011064261
195	0xbeb7e6cf	-0.3591828
196	0xbe3e399a	-0.18576661
197	0x3ea4aea9	0.32164505
198	0x3ef45cdd	0.477271
199	0xbc4fddbf	-0.012687146
200	0x3eef1242	0.46693617
201	0x3e37d49c	0.17952198
202	0xbe368a4d	-0.17826195
203	0xbe67e6f7	-0.226467
204	0x3e3326af	0.17495225
205	0xbe05b4bf	-0.1305723
206	0x3ecffd10	0.4062276
207	0x3baa03a1	0.005188421
208	0x3eb48f4f	0.35265586
209	0xbef1d7e1	-0.47235015
210	0xbe31dcba	-0.17369357
211	0x3de92747	0.11384445
212	0xbf033c8d	-0.5126427
213	0xbe6cd51b	-0.23128168
214	0xbcd8dc60	-0.02647227
215	0x3da0ddf1	0.07854832
216	0xbf107346	-0.56425893
217	0xbda5026c	-0.080571026
218	0xbe6d8ba4	-0.231978
219	0x3dbe0f23	0.09280231
220	0x3ec90e3b	0.3926867
221	0x3c66d0f6	0.014087906
222	0x3e27a33a	0.1637086
223	0x3e5029fa	0.20328513
224	0xbe877af0	-0.2646098
225	0x3e901f54	0.281489
226	0x3e6a3fc9	0.22875895
227	0x3d7c75eb	0.061635893
228	0x3e669169	0.22516407
229	0x3ee58ae6	0.44832534
230	0xbd7798e2	-0.060448535
231	0x3ea3ca18	0.31990123
232	0x3c8c7b76	0.017148715
233	0x3e1f41d7	0.1555246
234	0x3da1c41b	0.07898732
235	0x3cc877a5	0.024471113
236	0xbe555a10	-0.20835137
237	0xbde85b69	-0.1134556
238	0x3e77da23	0.24204306
239	0xbe854643	-0.26030168
240	0xbe0f2706	-0.1397973
241	0xbea11f89	-0.31469372
242	0xbeafeeb0	-0.34361792
243	0x3e849421	0.25894263
244	0x3d710e5e	0.058851592
245	0xbe3d13e7	-0.18464623
246	0xbea2ed15	-0.31821504
247	0x3e1febee	0.15617344
248	0xbee56541	-0.44803813
249	0xbe82b633	-0.25529632
250	0x3e524794	0.20535117
251	0x3e98be0f	0.29832503
252	0x3e239609	0.15975203
253	0x3e9e5096	0.30920857
254	0xbdbc25ce	-0.09186898
255	0x3e514c2f	0.20439218

h2h.bias f4 [16]
0	0xbd763ae8	-0.06011477
1	0x3e88d4cd	0.26724854
2	0x3c94b696	0.01815347
3	0x3e86a42c	0.26297128
4	0x3da00a88	0.07814509
5	0x3dd4d504	0.10392192
6	0xbd1d7bf5	-0.038448293
7	0xbdc0e8f3	-0.094194315
8	0xbc3fae51	-0.011699275
9	0x3dbd519d	0.09244082
10	0xbcbd39a9	-0.023098784
11	0xbd4302a6	-0.047609948
12	0xbe0f421e	-0.13990065
13	0x3e61e23d	0.2205896
14	0xbeb03d06	-0.34421557
15	0x3e4c26a2	0.19936612

h2o.weight f4 [2, 16]
0	0x3f0d6e76	0.55246675
1	0xbf3530c2	-0.70777524
2	0xbe9b2ed6	-0.3030917
3	0x3edd1d8a	0.431866
4	0xbe8b98a0	-0.2726488
5	0xbeb3eda1	-0.35142234
6	0xbf0683de	-0.52544963
7	0xbeca3ce9	-0.39499596
8	0xbe82fdac	-0.2558416
9	0xbf155df2	-0.58346474
10	0x3ea98c64	0.33114922
11	0x3f00d73f	0.5032844
12	0x3a69b83e	0.0008915699
13	0x3eb7a9eb	0.35871825
14	0xbf4e3ad5	-0.8055852
15	0x3f346478	0.70465803
16	0xbf39df46	-0.72606313
17	0x3f549080	0.8303299
18	0x3f0c3a5e	0.5477656
19	0xbf0082e2	-0.5019971
20	0x3f21f76f	0.6326818
21	0x3ef1e399	0.47243956
22	0x3eb0dc71	0.34543183
23	0x3e3fcd47	0.18730651
24	0x3eaab6d0	0.333426
25	0x3eb435ea	0.35197383
26	0xbed2bf94	-0.41161788
27	0xbe4a77fa	-0.1977233
28	0x3de10555	0.10987345
29	0xbee6ec93	-0.45102367
30	0x3f534f0a	0.8254248
31	0xbea84ad1	-0.3286958

h2o.bias f4 [2]
0	0x3dc5c4ec	0.096567005
1	0x3e4d85f1	0.20070626
