checkpoints/model_epoch_7.pth (torch, 4866 bytes, 5 tensors)

i2h.weight f4 [16, 19]
000000 94 31 13 be 55 26 ba bc 98 55 d2 bd 6e 55 31 3e
       -0.14374381 -0.022723356 -0.10270232 0.17317745
000010 2d 7b 83 be a8 0c 5f bd 09 21 3a be fb 0d 8f be
       -0.25679913 -0.05445543 -0.18176664 -0.27940354
000020 78 4d 06 3f 30 83 7e bd e3 90 09 bf 4f 3b 8e c0
       0.5246196 -0.06213683 -0.53736705 -4.44474
000030 34 0a 92 be 13 bc a5 3e a2 bb 92 be b3 7b 95 be
       -0.2852341 0.32370052 -0.28658777 -0.29195938
000040 81 a1 da be c5 69 a5 3e 4d 7e d2 bf f7 b0 7e 3e
       -0.42701343 0.32307258 -1.6444794 0.24872194
000050 ae 48 88 be 13 52 a0 3f 44 03 21 be 49 57 06 3e
       -0.2661795 1.2525047 -0.15723902 0.13119234
000060 ef 7f fb bd 8e 9d 47 3e eb d7 5a 3d 5b 85 1c bf
       -0.12280261 0.19493696 0.05342857 -0.61140984
000070 ae 62 99 bd 06 b2 8b 3f ca c8 8e 40 20 49 09 3d
       -0.07489525 1.0913703 4.4620104 0.033517003
000080 98 59 5e be 0c bf dc 3d a0 77 a3 be 8f 93 a0 3e
       -0.21713865 0.10778627 -0.31927204 0.31362578
000090 9e e6 8f bb 6c 27 b9 3f e2 71 d8 3d 3c ef 0b 3d
       -0.0043915054 1.4465156 0.105685964 0.0341637
0000a0 28 9c ed 3e f1 36 9a bc 3e b7 b2 3d 8f 1d ca 3d
       0.464082 -0.018825026 0.08726357 0.09868919
0000b0 2a 3c 56 3e 6b ae 02 3e 25 6c 23 be ec 77 f6 3d
       0.20921388 0.12761848 -0.15959223 0.12034592
0000c0 aa 13 81 3f b7 cd 8f 40 4d 71 8d 3e 9c 6c 3c 3c
       1.0084126 4.4938617 0.27625504 0.011500504
0000d0 c9 62 eb bc e7 48 29 bf bb de 79 3e b2 4c 0b 3e
       -0.028733628 -0.66126865 0.24401371 0.13603476
0000e0 4f 25 a9 3f 37 50 b8 be ef d9 99 3e f3 7c ff 3e
       1.3214511 -0.359987 0.30049083 0.49900016
0000f0 cd fc 57 3e 4a 16 01 bd 0a 71 8e be 3c 1f 21 be
       0.2109253 -0.031515397 -0.27820617 -0.15734571
000100 46 2c 88 be fb 89 10 3e 15 1a b4 bc 16 e2 2d be
       -0.26596278 0.14115135 -0.021985093 -0.16980776
000110 8e fb 93 c0 f2 69 49 3e ce d7 59 be ad 1d 67 3e
       -4.6244574 0.19669321 -0.21273729 0.22569914
000120 08 2d 48 be c6 65 a2 be 4d e0 ba 3d 14 5c af bf
       -0.19548428 -0.31718272 0.09124813 -1.3699975
000130 fa 6c 80 bd 7b 4d 3e 3d 7c 3f b1 bd dd 11 74 3e
       -0.06270786 0.04646061 -0.08654687 0.2383494
000140 84 7c f2 3d 9c 0b 65 be 3d b8 f4 bd 27 d5 a2 bd
       0.11840156 -0.2236771 -0.11949203 -0.07950812
000150 4f b5 d4 bd c3 0b 24 3e ec de 72 3e 11 45 92 40
       -0.10386144 0.16020112 0.2371785 4.570931
000160 8f 3b c6 be 1f a4 98 be 54 f4 d1 3d 7d 1a 5b 3c
       -0.38717315 -0.29812714 0.1025168 0.0133730145
000170 7e 0d 47 3e bc 16 3b be a3 88 d4 3f 49 5e 5b 3e
       0.1943874 -0.18270391 1.6604198 0.21422686
000180 7e 95 6b 3e 95 d7 9b 3e 4e f2 cd bd f7 e0 9b 3e
       0.23006245 0.30437914 -0.100559816 0.30445072
000190 b0 2e b1 bd 1c 54 d2 3e 23 ab 04 3e 68 56 f6 3a
       -0.08651483 0.41079795 0.12955908 0.0018794062
0001a0 c7 1b 7f bc 67 1f 86 3e 7b 94 9a 40 37 93 90 3e
       -0.0155705875 0.26195833 4.830625 0.28237316
0001b0 7f 92 c8 be 30 87 b2 3d 9c b8 29 be 0e 14 bc 3d
       -0.39174268 0.08717191 -0.16574329 0.09183513
0001c0 49 1e ba 3d 19 a8 c1 3f 0e 6e c9 3e b4 0b 6e be
       0.09087808 1.5129424 0.39341778 -0.23246652
0001d0 0e 95 84 be 1c a5 99 be 7b 13 05 3c ba 7d 1e be
       -0.2589497 -0.3000878 0.00812232 -0.15477648
0001e0 89 70 21 3e da ac a8 3e 5f c5 ad be 29 2e d6 bd
       0.15765585 0.32944375 -0.33939645 -0.10458023
0001f0 8c 9f 70 be 51 41 8a 40 5f 9b 04 be f6 8b 29 3c
       -0.23498362 4.320473 -0.12949894 0.010348311
000200 41 eb 95 3e 9a a6 4f bd 13 eb 29 3e bf 2e a2 bd
       0.29281047 -0.050695993 0.1659358 -0.07919072
000210 06 e6 c7 3f c4 cb 57 3e 29 a2 52 3e 64 7e 7a be
       1.5617073 0.21073824 0.20569672 -0.24462277
000220 c4 43 d1 3d 35 85 be 3e 1d 63 8d 3e 00 00 c0 bc
       0.102180034 0.37211004 0.2761468 -0.0234375
000230 b7 04 65 3e 02 a3 12 be 68 3b d8 bd 37 ab a8 be
       0.2236508 -0.14319995 -0.10558206 -0.32943127
000240 00 25 98 40 53 df 1b 3f 3e 5c f1 bd e9 01 16 3d
       4.7545166 0.6088764 -0.11785172 0.036622915
000250 dd b0 3e 3f c8 ea 3a 3e 32 ad 81 3e 99 06 ee 3f
       0.7448862 0.18253624 0.2532745 1.8595763
000260 f3 e6 fa 3e 94 c1 41 be d0 63 bd 3d 2b 2f 9d be
       0.49004325 -0.189215 0.09247553 -0.3070005
000270 6e d4 60 3e 4f 07 06 bd 4d b3 10 3e cc 91 60 bd
       0.21956035 -0.032721814 0.14130898 -0.054826543
000280 7d 12 94 3c 8d a3 a8 3d 46 8a 2d 3d 5a 47 87 40
       0.018075222 0.0823432 0.042368196 4.22746
000290 5f 7a 00 bf 2b 6b 7e 3e 7c f7 4e bd 2b 64 c5 be
       -0.50186723 0.24845569 -0.05052899 -0.38552985
0002a0 09 ab 9a 3e 3d 8c 95 bd ea d1 b8 3f c0 0c cb 3e
       0.30208614 -0.07302139 1.4439061 0.39658165
0002b0 6d e8 6f be d1 7e 0b 3f 17 cb 0d bd d5 61 17 3d
       -0.23428507 0.5449038 -0.03461751 0.036958534
0002c0 22 3b 5c bc f2 db 25 3e e5 07 74 3e 70 8f e5 bd
       -0.013441833 0.16197184 0.23831137 -0.11208999
0002d0 c0 7e 49 be 27 f3 75 3e 56 64 97 40 9c 58 b5 3e
       -0.19677258 0.24018537 4.730998 0.35419166
0002e0 db 62 f9 3d 61 b2 35 3e 95 54 02 be 44 b7 24 3d
       0.12177058 0.17743827 -0.12727578 0.04021384
0002f0 4c 59 c6 3d c2 89 c7 3f f6 92 04 be f6 2d 5e 3e
       0.09685001 1.5588915 -0.12946686 0.2169722
000300 70 cd 67 be 21 76 8a 3d cf d5 16 3d 19 0a bb 3d
       -0.22636962 0.067608126 0.036824998 0.09132785
000310 08 6f ab 3d d6 f4 47 3e c7 6f 03 bd c6 bf 3a be
       0.08370787 0.19526991 -0.03208902 -0.18237218
000320 29 96 e2 bd ce 78 9a c0 60 29 e6 3e 54 be 9e bd
       -0.11063797 -4.8272467 0.44953442 -0.07751146
000330 e0 bb 26 3c 3d 99 ee be f9 75 7b bc 10 1f de 3c
       0.010176629 -0.46601287 -0.015347951 0.027114421
000340 79 81 bb bf df e5 21 bf 3c f8 a2 3e ab 42 1b bc
       -1.4648887 -0.6324138 0.31830013 -0.009476344
000350 06 13 f7 3e c8 80 94 3d 3c c9 ac be 02 df 7b 3d
       0.482567 0.072511256 -0.3374728 0.061491974
000360 20 ca df bd 56 85 e6 bb 6f b2 d4 3d 7e 5b 88 be
       -0.10927224 -0.007034938 0.10385596 -0.26632303
000370 8d 86 03 c0 97 9e 2d 3f a3 e4 32 be 07 44 ba be
       -2.0550873 0.67820114 -0.1747003 -0.36380026
000380 f3 de 3c 3e 6c 02 af bd 4a 68 2a 3c 54 1d 6b bf
       0.18444423 -0.08545384 0.010400841 -0.91841626
000390 16 dd d5 3e 23 cc 42 be d8 d2 a0 3e 8d af e3 be
       0.41770238 -0.19023184 0.3141086 -0.44469872
0003a0 d0 13 10 be a0 55 a6 bd 15 c7 83 3e 5a 24 2c 3e
       -0.14070058 -0.081218004 0.25737825 0.16810742
0003b0 d1 a4 16 be e2 d9 2e 3e d0 00 b0 3e 23 69 86 c0
       -0.1471131 0.17075303 0.3437562 -4.200334
0003c0 61 9d 8a be 84 c0 90 bd 06 69 28 3e 8e 10 5d 3d
       -0.27073196 -0.070679694 0.16446313 0.053970866
0003d0 5f 6e ad 3e f6 55 14 be 20 78 b9 bf f7 45 50 bf
       0.3387327 -0.14485916 -1.4489784 -0.8135676
0003e0 39 94 02 3f 99 26 a8 be 6c 9e b1 bd 26 40 84 3d
       0.5100742 -0.32841948 -0.08672795 0.06457548
0003f0 b6 a6 83 be 8d b7 b1 be 4a 51 38 be a3 5a 15 3f
       -0.25713128 -0.3471035 -0.1799976 0.58341426

h2h.weight f4 [16, 16]
000000 12 2f 45 3e 9e fa 9f be 30 82 dc 3b 33 10 30 3e
       0.19256237 -0.31245893 0.0067293867 0.1719368
000010 04 01 6a be 2c 6d a1 bd be 36 12 be 93 f9 bd be
       -0.2285195 -0.07882151 -0.14278695 -0.37104473
000020 fd 26 0d be 88 98 90 be 4f 16 1b 3e 23 c4 69 be
       -0.13784404 -0.28241372 0.15145229 -0.22828726
000030 0e db 7f bc ad ce d0 bd 6c 8d 20 be e5 f9 c2 3e
       -0.015616192 -0.1019567 -0.15678948 0.3808128
000040 74 9a b1 3c 79 32 14 3d a8 76 35 be b8 85 08 be
       0.021680094 0.036180947 -0.17721045 -0.1333226
000050 a2 f9 35 3d 03 25 de bd 1b 82 98 3e b7 f7 8b 3e
       0.04442752 -0.10846903 0.29786763 0.2733743
000060 d8 06 c6 3e 13 a7 a3 3e a0 46 cf be 22 af 31 bf
       0.38677096 0.31963405 -0.4048357 -0.69407856
000070 ac b7 76 bd f0 34 31 be 30 d1 a7 3d 5d 47 e8 be
       -0.060233757 -0.1730535 0.08194196 -0.45366946
000080 4d cc 8c be 8a 2f db 3d d5 8c 16 3e 00 a6 11 3e
       -0.2749962 0.10702427 0.1470216 0.1422348
000090 6d 83 32 3d 6a 2e fb 3d b1 4d 0a 3d 7e a8 f9 bc
       0.04358237 0.12264712 0.0337655 -0.030475851
0000a0 b8 bb 38 3e 5d 5a 0e 3f 2a e7 53 3b 95 91 2b be
       0.18040359 0.55606633 0.003233383 -0.16754754
0000b0 18 6f 84 3d 59 84 06 3c 85 53 30 3e 0d c8 c9 be
       0.06466502 0.008210265 0.1721936 -0.3941044
0000c0 32 72 1c 3e b9 67 61 bb 32 87 80 bc 0d 62 b5 3e
       0.15277937 -0.00343941 -0.015689466 0.3542637
0000d0 50 c4 4f bd 60 59 8f 3d 70 0c 0b 3e e0 9f e0 bd
       -0.050724328 0.06999469 0.13578963 -0.10967994
0000e0 84 46 b2 be 29 9e a9 be 96 54 b2 3e 67 b8 aa 3e
       -0.34819424 -0.3312848 0.3483016 0.33343813
0000f0 20 95 9c bd 0c 40 c1 3e 66 61 11 be 7e ad fd 3e
       -0.07645631 0.37744176 -0.14197311 0.49546427
000100 91 da 75 bd b1 28 3b 3d 31 41 9a 3e 6d 51 91 3c
       -0.060022894 0.045693103 0.30127862 0.017739022
000110 9b 74 b7 3d 77 95 93 3e 31 d4 ba bc a9 40 f9 bd
       0.089577876 0.2882497 -0.022806259 -0.12170536
000120 3e 94 bb bd f2 07 11 3d 8f d6 8f be c4 13 80 3e
       -0.09159134 0.035407968 -0.28093383 0.2501508
000130 68 f2 cd bd c7 8d 81 be 4b ea e9 bc 8e c3 3b be
       -0.10056001 -0.2530348 -0.028554102 -0.18336317
000140 64 ad c0 bd cc 75 b7 bd 17 36 e1 3d a9 d1 25 be
       -0.09408072 -0.08958015 0.10996645 -0.1619326
000150 82 8c 81 3d 4b a3 ea 3c 0e 01 4c 3d 1c b0 cb 3d
       0.06325628 0.028642317 0.049805693 0.099456996
000160 7b 4c 92 3d 58 6e 8a 3e cb c8 c0 be 7f 96 53 bd
       0.07143494 0.2703731 -0.37653193 -0.051657196
000170 45 a2 38 bd 36 43 a1 3e 1e e6 b4 3d 9b 9c 2a be
       -0.045076627 0.3149659 0.08832954 -0.16661303
000180 ef 51 18 be 13 b2 97 3e e1 89 00 be a2 51 a2 be
       -0.14875005 0.29628047 -0.12552597 -0.31702906
000190 90 d6 4b 3e c5 cb 78 be 03 c6 53 3e 29 5c 79 3e
       0.19906068 -0.24296482 0.20681004 0.24351563
0001a0 85 08 a5 3e 74 4b 40 3e f7 a6 02 bd 4d 9d 39 3e
       0.32233062 0.18778783 -0.03189751 0.18126412
0001b0 89 ab b7 3d bd 0b d8 3c 4a b0 3a 3e 3b fb 3d be
       0.089682646 0.026372785 0.18231311 -0.18552868
0001c0 62 ae c4 3e f9 bc 5d be e6 69 2c bd 9a 61 9c 3e
       0.38414294 -0.21654119 -0.04209318 0.30543214
0001d0 1b 74 b4 3e db 34 42 bd 96 9c 37 bf 6d 21 07 3e
       0.3524483 -0.04741369 -0.71723306 0.13196345
0001e0 21 cb 37 bf 25 3d 13 bf fd d1 de 3e b5 0f 64 3f
       -0.71794325 -0.57515174 0.43519583 0.8908647
0001f0 42 09 20 bf 22 1b b4 3d 39 61 a9 be 03 59 34 3e
       -0.62514126 0.08794238 -0.33081988 0.1761208
000200 c0 a4 fd bd 91 ce 74 3d 70 0f 2d 3e a4 0c 9f 3d
       -0.12384939 0.05976731 0.1690042 0.07766083
000210 13 ea 85 3e 1b 5f ae 3e c1 69 bc 3e 4a 32 03 be
       0.26155147 0.34056935 0.36799434 -0.12812153
000220 75 59 86 bd e6 db 89 3e 65 42 31 3e 47 bd 2a be
       -0.06560031 0.26925582 0.17310484 -0.16673766
000230 ba 35 a0 bd 5c f6 c2 3e 77 f0 d8 3d de 1b 0f 3d
       -0.078227475 0.38078582 0.1059274 0.034938686
000240 ad c0 cb 3d 03 57 74 3e e7 46 66 be 88 01 e6 bd
       0.09948859 0.23861317 -0.22487985 -0.11230761
000250 0e ae 5e 3d 00 d9 d7 3a a2 5d 35 3e 7d 93 c7 3e
       0.05436521 0.0016467869 0.177115 0.38979712
000260 be 0f 7d 3e e4 c9 79 3d c7 f6 52 be 46 e5 df be
       0.24713036 0.060983554 -0.2060195 -0.4372961
000270 15 07 2c 3d 8a 44 63 bc 7d 85 b1 3e 9c 5a 02 be
       0.04199894 -0.013871321 0.34672156 -0.12729877
000280 b8 14 5d 3e da 38 81 3d 70 bd 0c 3d 37 4c c4 3d
       0.21589935 0.06309672 0.03436035 0.09584849
000290 56 5c 41 be 24 f3 8e be f2 0f b7 bc 13 05 3d be
       -0.1888288 -0.27919877 -0.02234647 -0.18458967
0002a0 28 e8 6a bd 1f c5 78 be cf 42 2b 3e 7b 15 df 3d
       -0.057350308 -0.24293946 0.16724704 0.10892769
0002b0 5f 08 23 3e 45 2c 95 be a6 46 87 be b6 e5 ad 3d
       0.15921162 -0.29135337 -0.26421088 0.084910795
0002c0 d6 c1 68 be b7 36 b1 bc c3 7b 0c 3e bc 77 58 3e
       -0.22730193 -0.021632535 0.13719086 0.21139425
0002d0 8a 5d 07 bd 55 a4 79 be e8 8c 2e bd 49 dd ec bc
       -0.03304819 -0.24379094 -0.042614847 -0.02891411
0002e0 60 41 df bd 87 91 fa bd 2d 28 f4 3d 7b 31 ac be
       -0.10901141 -0.122347884 0.119217254 -0.336315
0002f0 a0 c2 c6 3d 2f be 16 be 51 57 bf bc 69 b9 83 3e
       0.097050905 -0.14720987 -0.023357065 0.25727394
000300 9a 4f e9 be 15 22 a3 3d 12 fa 02 bc dd ba ad be
       -0.45568544 0.07965485 -0.007994192 -0.33931628
000310 97 47 5d be b9 8d c6 3e d2 da 0b 3f d5 2a ca 3c
       -0.2160934 0.3878 0.5463077 0.024678627
000320 2a f9 f4 3e 51 2f 68 3e 4f 08 65 be 31 d2 b0 be
       0.47846347 0.226743 -0.2236645 -0.34535363
000330 9d 44 54 3e 39 27 56 bd 47 fb b2 3e 31 fe 44 bb
       0.20729299 -0.0522835 0.34957334 -0.0030058736
000340 69 81 f9 3e 65 36 0d bf a1 b2 a7 be c3 92 e8 3d
       0.48731545 -0.55161124 -0.3275347 0.113561176
000350 14 38 39 bf 6c 37 75 be 79 a6 ea bb 37 17 a9 3c
       -0.72351193 -0.23946923 -0.0071609584 0.020640953
000360 92 25 11 bf 0b 27 20 be 6b d2 28 be 0b db 3d 3e
       -0.5669795 -0.15639894 -0.16486518 0.1854059
000370 79 d6 fd 3e b3 98 ab 3d 76 c9 1d 3c dd a8 78 3e
       0.49577692 0.083787344 0.009630552 0.24283166
000380 8c 2f a8 be 7c af 8d 3e bf 71 53 3e ea 68 7f 3d
       -0.32848775 0.27672946 0.2064886 0.062355913
000390 79 71 8d 3e 3e 9b 05 3f c0 d3 f9 bc d4 85 b4 3e
       0.27625635 0.52190006 -0.030496478 0.35258353
0003a0 3b d5 ad bd 3a 5d 03 3e d4 28 26 3e 17 65 fb 3d
       -0.08487936 0.12828532 0.16226512 0.12275141
0003b0 28 db 3b be 56 49 95 bd f6 d5 b7 3e 99 a6 93 be
       -0.1834532 -0.07289378 0.35905427 -0.2883804
0003c0 47 0d 41 be d7 7a 96 be 58 7e b0 be 47 e9 8b 3e
       -0.18852721 -0.29390594 -0.34471393 0.27326414
0003d0 0c 3d cc 3d 88 0b 02 be 2b 90 9c be a9 29 2b 3e
       0.09972581 -0.12699711 -0.3057874 0.16715111
0003e0 87 fd 17 bf e1 16 61 be b5 6d 76 3e fd 27 a2 3e
       -0.5937123 -0.21981384 0.24065287 0.31671134
0003f0 25 a1 30 3e 59 9c e6 3e 01 09 38 be 03 1a 3a 3e
       0.17248972 0.4504116 -0.17972185 0.18173985

h2h.bias f4 [16]
000000 18 82 d1 bd 75 8f a1 3e 7e 36 42 3c 7f 45 96 3e
       -0.102298915 0.31554762 0.011853812 0.29349896
000010 f6 c2 a7 3d 83 e0 d8 3d 59 d1 56 bd b7 0e 95 bd
       0.08191483 0.10589697 -0.052445743 -0.07278197
000020 72 1b 1e bc 71 2a da 3d 2d c2 90 bc 64 4a 62 bd
       -0.009650098 0.10652626 -0.017670715 -0.055246726
000030 1e 99 0a be a5 35 87 3e 1a bc ca be 49 2b 65 3e
       -0.13534972 0.26408115 -0.39596635 0.22379793

h2o.weight f4 [2, 16]
000000 05 e5 0c 3f 2c 0d 5d bf 14 be ad be 57 3d 05 3f
       0.55036956 -0.86348224 -0.3393408 0.5204672
000010 62 7b c1 be 00 c9 b9 be b5 e8 fc be 26 87 2f bf
       -0.37789446 -0.36286163 -0.4939629 -0.68565595
000020 1a 87 5a be 1d d0 17 bf b4 84 b7 3e 22 16 c7 3e
       -0.213406 -0.5930193 0.35843432 0.38884073
000030 2e 8e 5e 3e c8 c0 d6 3e f9 cd 71 bf c4 ab 5b 3f
       0.21733925 0.41943955 -0.94454914 0.8580897
000040 72 55 39 bf 76 6c 7c 3f 0a 81 15 3f d9 30 17 bf
       -0.72396004 0.98603 0.58400023 -0.5905891
000050 b1 e8 3c 3f c5 bd f7 3e 80 bd a0 3e b6 b8 f4 3e
       0.7379256 0.4838697 0.31394577 0.47797173
000060 32 fb 94 3e 7a 1a b9 3e da b6 e0 be 24 8b aa bd
       0.29097897 0.36153013 -0.43889505 -0.0832732
000070 61 45 da bd a1 01 03 bf 33 e2 76 3f d4 d8 f6 be
       -0.10657764 -0.5117436 0.964389 -0.48212302

h2o.bias f4 [2]
000000 78 7a 81 3d c6 a8 6f 3e
       0.06322187 0.23404226
