checkpoints/model_epoch_1.pth (torch, 4866 bytes, 5 tensors)

i2h.weight f4 [16, 19]
000000 62 eb 02 bf a1 ac b6 3d 5f 2e 0b be f9 a7 05 3c
       -0.51140416 0.08919645 -0.13591908 0.008157724
000010 2e fd 9a be 73 14 42 be 36 e9 f6 bd 00 e0 3c be
       -0.30271286 -0.18953113 -0.120562 -0.18444824
000020 51 60 d9 3e 30 83 7e bd e0 b7 e3 be da 3d 80 bf
       0.42456296 -0.06213683 -0.44476223 -1.0018876
000030 94 ca c9 bc 42 9f 3d 3e 4f cb 6d be c2 3d d1 bd
       -0.02463273 0.18517783 -0.23222087 -0.102168575
000040 5d 89 a6 be a1 2e 91 3e 31 f9 12 bf d0 46 8f 3e
       -0.32526675 0.28355888 -0.57411486 0.27983713
000050 e9 df 97 be d1 6d c6 3e 78 a1 79 be 56 c5 5f 3e
       -0.29663017 0.38755658 -0.24378002 0.21852621
000060 17 82 38 bd 67 a6 2b 3e ef 90 40 3e b7 c0 f3 be
       -0.04504594 0.16762696 0.18805288 -0.47607967
000070 ae 62 99 bd 82 74 03 3f 51 8b 8b 3f b9 70 1e be
       -0.07489525 0.5134965 1.0901891 -0.15472688
000080 46 54 5c be d9 e6 46 3e 4d f5 93 be 16 31 2c 3e
       -0.21516523 0.19423999 -0.28898087 0.168156
000090 c2 09 4c bc 0a 34 08 3f a9 3b 98 3e 00 0b a8 bd
       -0.012453498 0.53204405 0.29733017 -0.08205223
0000a0 bc 24 b1 3e d2 49 16 be 73 fb 15 3e 7b 05 e6 3d
       0.3459834 -0.14676598 0.14646702 0.11231514
0000b0 88 53 22 3e ba ac 00 3e 47 95 be bd ec 77 f6 3d
       0.15852177 0.1256589 -0.09305816 0.12034592
0000c0 b1 28 05 3f 6e 2c 92 3f a1 f7 91 3d 11 96 9e bd
       0.52015215 1.1419809 0.071273096 -0.07743467
0000d0 dd 3f 20 3d 2e df bb be 90 0d 78 3e 72 f6 74 3d
       0.039123405 -0.3669371 0.24223924 0.05980534
0000e0 29 f6 a5 3e 88 b1 71 be 43 26 59 3e e5 7d 83 bc
       0.32414368 -0.23602879 0.21206002 -0.016051242
0000f0 de 63 53 3d 57 d6 8e 3d 8f c0 87 be 4d f5 5b be
       0.051608913 0.06974476 -0.26514098 -0.21480294
000100 9d ef 24 be 4a f0 58 3d 15 1a b4 bc 63 d4 d3 be
       -0.1610703 0.052963533 -0.021985093 -0.41372976
000110 19 4d 97 bf 48 b7 30 3c 60 62 72 bd 16 71 35 3e
       -1.1820403 0.010785885 -0.05917585 0.1771892
000120 68 44 89 3c 11 0e 9c be 9c 76 19 3e 1e 73 4b be
       0.016756251 -0.30479482 0.14986652 -0.19868132
000130 e2 5e 25 3e b0 70 29 be b9 30 79 3d e4 ab ff bc
       0.16149476 -0.16546893 0.06083748 -0.031209894
000140 41 16 21 3e 24 9c 19 be 55 26 ad bd eb ed 7e bd
       0.15731145 -0.15000969 -0.08454577 -0.062238615
000150 05 0a 06 be c3 0b 24 3e 88 c4 67 3e 1c df 68 3f
       -0.1308976 0.16020112 0.22633564 0.9096544
000160 aa 32 88 be 49 1f 82 be ca b7 07 3e ad c4 b2 3d
       -0.26601154 -0.25414494 0.13253704 0.08728919
000170 0a 00 88 3e 68 7a 27 be 34 e8 0d 3f 4d 18 a1 3e
       0.2656253 -0.16355288 0.5543244 0.31463853
000180 19 1a cf 3d 6a dc 91 3e fc 69 38 be 81 df 90 3e
       0.101123996 0.28488475 -0.1800918 0.2829552
000190 e9 e1 d3 bb ed 87 ad 3e 09 cc e0 3d 21 57 f6 bd
       -0.0064661396 0.33892766 0.109764166 -0.12028337
0001a0 c7 1b 7f bc b8 7e fc 3d 76 dd 8d 3f 0b f4 00 3e
       -0.0155705875 0.12328857 1.108321 0.12593095
0001b0 a4 60 58 be 69 85 9f 3d 6e 3b db bd 7b 7c 2f 3e
       -0.21130615 0.07789118 -0.10704695 0.1713733
0001c0 a2 6b 11 3e 5b 7a 6a 3e 7f 40 ad 3e 1b 0d 2f be
       0.14201215 0.22898237 0.3383827 -0.17094843
0001d0 69 32 1f bd 39 c6 08 bd 4a 86 4a 3d dc 50 07 be
       -0.038866434 -0.033392165 0.049444474 -0.13214439
0001e0 59 c6 1d 3e c2 86 38 3e c9 cd 70 be 29 2e d6 bd
       0.15407695 0.18020156 -0.23516001 -0.10458023
0001f0 df 22 0e 3d b8 63 7c 3f fc 11 a7 bd b4 20 88 bc
       0.034701224 0.9858966 -0.08157727 -0.016617157
000200 ec ff 3e 3e 6e 05 82 bd d2 91 c6 3d 80 4c b5 bd
       0.18652314 -0.06348692 0.09695782 -0.08852482
000210 ed eb 08 3f 82 6d 99 3d 5d 0b 8a 3e 67 2b b9 bd
       0.53484994 0.0749159 0.26961794 -0.090414815
000220 27 9a 1c 3e 82 87 6a 3e 97 f8 08 3e 61 65 20 3d
       0.1529318 0.22903255 0.1337608 0.039159182
000230 d9 d0 71 3d de 0e e2 bd 68 3b d8 bd 5b fb a7 bd
       0.059037063 -0.11037992 -0.10558206 -0.08202239
000240 05 8a a1 3e 1f 34 11 3e 2f 19 90 bd 1d b5 6e bc
       0.31550613 0.14180039 -0.070360534 -0.014569548
000250 91 da a4 3e 19 c7 a2 3e f6 38 02 3e 86 93 c3 3e
       0.32198003 0.31792524 0.12717041 0.3819849
000260 8c 90 dc 3e 4a 7d 8a bd 92 d1 f1 3d fc 8c 82 be
       0.4307903 -0.06762178 0.118075505 -0.25498188
000270 b0 f4 8a 3e 51 85 cf bd 66 0b 3c 3e cb 08 fe bd
       0.27139807 -0.1013285 0.18363723 -0.12404021
000280 61 6a 43 bd 8d a3 a8 3d eb 0b 2a 3e 00 9c 92 3f
       -0.047708873 0.0823432 0.16606109 1.1453857
000290 33 e8 62 be 8c 46 e5 3c 7d 67 85 bd 41 fa 97 be
       -0.2215889 0.027987741 -0.065138794 -0.29683116
0002a0 aa 32 9c 3e 1c ca d4 bd 90 72 a5 3e 3a 4e f7 3e
       0.30507404 -0.10390112 0.32313967 0.4830187
0002b0 0a 95 8e bd 10 6e 9c 3e dd 55 17 bd 14 3a 8e 3d
       -0.06962021 0.3055272 -0.03694712 0.06944671
0002c0 86 ed 8c 3d ea 70 17 3e 3b b4 07 3e 86 96 52 be
       0.068812415 0.14789167 0.13252346 -0.20565233
0002d0 c0 7e 49 be 0e 87 3d 3e f3 78 88 3f 36 19 01 3e
       -0.19677258 0.1850855 1.0661911 0.12607273
0002e0 e2 9a b4 3d a0 ba 25 3e 25 99 42 be 01 53 ac 3d
       0.08818604 0.16184473 -0.19003733 0.08414269
0002f0 c2 8e 01 3e 0a fa d5 3e 94 9b 05 be b6 d2 fa 3d
       0.12652114 0.41792327 -0.1304763 0.12247221
000300 03 d8 44 be 4d fa ec 3c 28 0c 72 bc b7 fc 46 3d
       -0.19223027 0.028927946 -0.014773406 0.04858085
000310 22 2b 06 3e 66 51 c1 3d da 12 42 3d c6 bf 3a be
       0.13102391 0.09439354 0.04738126 -0.18237218
000320 1e 0d ed bc c6 7c 85 bf ba 8e 60 3e d2 cc 35 3d
       -0.028936919 -1.0428703 0.21929446 0.044384785
000330 3c 87 4a bd cf 12 34 be 63 42 7f bd 28 c6 c1 3c
       -0.049445376 -0.175853 -0.06231917 0.023654059
000340 8e a3 38 be 41 a8 bd be 34 7c 57 3e f4 98 b4 bd
       -0.18031141 -0.3704243 0.21043473 -0.08818236
000350 1f 66 8d 3e cf 97 6e bd d8 49 59 be 9d 9b 75 3d
       0.27616975 -0.058250245 -0.21219575 0.059962858
000360 8b 03 32 be f5 61 c9 3d 6f b2 d4 3d 54 b4 a9 be
       -0.17384164 0.09833137 0.10385596 -0.33145392
000370 38 e1 81 bf e2 99 95 3e d3 82 c5 bb df 30 f9 bd
       -1.0146856 0.29218966 -0.0060275584 -0.121675245
000380 56 90 53 3e 81 82 2e bc 86 4c 90 ba 90 ac 1e be
       0.20660529 -0.010651232 -0.0011009134 -0.15495515
000390 00 47 8b 3e 75 ff b3 bd 2f 17 80 3e 29 6c c5 bd
       0.27202606 -0.08788959 0.25017688 -0.096397705
0003a0 d2 d1 43 bd e6 29 12 3d 7c c9 0c 3e b6 cd e7 3d
       -0.047807522 0.03568449 0.13748735 0.11318533
0003b0 c2 bb e1 bc e2 d9 2e 3e d1 d6 a7 3e 38 55 a1 3e
       -0.02755535 0.17075303 0.3278108 0.3151033
0003c0 5f a1 9b be b0 7f 4b be c6 8f 29 3e 7a df 60 3c
       -0.30396554 -0.19872928 0.16558751 0.013725156
0003d0 12 e6 b2 3d 50 73 c2 bd 3d 81 9c be 02 45 30 bf
       0.08735289 -0.0949465 -0.3056735 -0.688553
0003e0 f2 bc 2f 3e 4a a4 9d be f5 cd 69 bd 8d 4f 2f 3d
       0.1716192 -0.30789405 -0.05708118 0.042800475
0003f0 60 c1 c9 3c da 1b b0 be 7e a3 78 be 8d 03 0c 3f
       0.024628341 -0.3439625 -0.24281117 0.5469292

h2h.weight f4 [16, 16]
000000 ac ba c7 3d eb 6b 5d be c1 27 4b 3d 49 13 68 3e
       0.09752402 -0.21623199 0.04959846 0.22663607
000010 23 3e 8d bd 64 6e af 3d 6e 46 0e be d8 8d 4c be
       -0.06896617 0.08565977 -0.13894054 -0.19975984
000020 c7 2e d5 bd 7e 56 8c be 5c db cf 3d 43 1d a4 3d
       -0.10409313 -0.27409738 0.10149261 0.08013394
000030 24 7f aa bd 80 8e 14 be 52 0f 08 3c 2f 60 b9 3e
       -0.083250314 -0.14507484 0.008304434 0.36206195
000040 e7 2c 30 3d 46 81 de bd c7 32 f8 bd a8 35 43 bd
       0.043011572 -0.10864501 -0.1211906 -0.047658592
000050 45 e9 fb 3d eb 1a 20 bd c4 00 58 3e e8 c4 14 3e
       0.12300352 -0.03908817 0.21094042 0.14528239
000060 2e 92 a7 3e c3 46 6a 3e 68 c4 77 be 7e 2b a9 be
       0.32728714 0.22878556 -0.24196017 -0.33040994
000070 9f 5f ca bd 4c c0 23 be 09 62 a7 bd cb 40 b7 be
       -0.098815195 -0.15991324 -0.081729956 -0.3579162
000080 34 91 38 be bc d3 90 bd fe 1e 3d 3d f6 da 3c 3e
       -0.1802414 -0.07071635 0.046172135 0.18442902
000090 5d cb 85 3d ff 5c be 3d 21 3b 83 b9 69 2d b0 bd
       0.06532929 0.09295081 -0.00025030322 -0.08602411
0000a0 70 dd 6c 3e 86 3a 87 3e e7 31 1f bd 6e 5f 39 be
       0.23131347 0.26411837 -0.03886595 -0.1810281
0000b0 b7 d0 16 3e 64 2a dd 3c 73 84 4e 3e 60 d5 9c be
       0.14728056 0.026997752 0.20167713 -0.30631542
0000c0 c5 bf b7 3e 92 3c b5 3d 7f 67 f0 bc bc 65 8e 3e
       0.35888496 0.088494435 -0.029346226 0.27811992
0000d0 82 e8 fc bd 61 37 2b be 6b b3 f5 3d 3e 0b 38 be
       -0.12349035 -0.16720344 0.11997112 -0.17973039
0000e0 38 bd c5 bd f0 fa 9a be 07 b8 2e 3e 75 80 dc 3c
       -0.09655231 -0.30269575 0.17062388 0.026916722
0000f0 9b 28 e3 bd f6 1d 4f 3e 3b 68 b6 bc 9e 69 b8 3e
       -0.11091729 0.20226273 -0.022266498 0.3601808
000100 2e e0 e4 bd 9e 51 14 bd a3 35 75 3e ae 23 8e 3d
       -0.111755714 -0.03621065 0.23946242 0.06940399
000110 3c a8 87 3d 9f f0 84 3e 9c 56 95 3c 83 39 0a be
       0.06623885 0.2596483 0.018229775 -0.13498501
000120 84 9b dc bd 38 48 fb bc 8a 94 81 be 41 51 1d 3e
       -0.1077185 -0.030674085 -0.2530864 0.15363027
000130 7f f9 ef bd 09 40 40 be 12 36 10 be e0 ee 0f be
       -0.117175095 -0.18774427 -0.14083126 -0.14055967
000140 a8 1f 36 bd 63 a4 2d be da 10 1a 3e 8e 19 16 be
       -0.044463784 -0.1695724 0.15045491 -0.14658186
000150 0f 92 e5 3d df 05 a0 3c d9 93 a3 3d a5 82 d3 3c
       0.11209499 0.01953405 0.07987184 0.025819132
000160 0f 29 40 3e b0 30 28 3e 2b ad 7d be 93 91 82 bd
       0.18765663 0.16424823 -0.2477309 -0.06375422
000170 73 35 a5 bc 85 c0 62 3e 9a 22 1a 3e 83 da 01 be
       -0.020167088 0.22143753 0.15052262 -0.12681012
000180 68 26 92 be cf 42 88 3e cd ab 10 bd 29 34 9a be
       -0.28544927 0.2661347 -0.035320092 -0.3011792
000190 1e 04 84 3e bb aa 28 be d0 73 ec 3d 91 57 85 3e
       0.2578439 -0.16471379 0.11545527 0.2604337
0001a0 74 80 4f 3e 48 bf 62 3e 50 c7 0a bd 06 07 f3 3d
       0.20263845 0.2214328 -0.033881485 0.11866574
0001b0 21 ab 41 3d e3 f6 65 bc e2 6c 28 3e 08 ed ed bd
       0.047282342 -0.014035913 0.16447785 -0.11617476
0001c0 e9 0d b6 3e 9d c1 93 be fe 83 36 bd 2b 2a 16 3e
       0.35557488 -0.28858653 -0.04455947 0.14664523
0001d0 dd 0b 1e 3e 2e 26 5e bd f0 fb c8 be a2 3f 15 3d
       0.15434213 -0.05423563 -0.39254713 0.036437638
0001e0 4d c2 54 be e8 6c be be a7 71 02 3e 3b 62 d9 3e
       -0.20777245 -0.37192464 0.12738667 0.42457756
0001f0 72 70 c0 be e3 ed eb bb 4b 4f 46 be 0f bc 04 3c
       -0.3758579 -0.007199989 -0.19366185 0.008101477
000200 5f 7e d1 bd a4 28 e4 bb a3 12 33 3e c1 a6 3e 3c
       -0.102291815 -0.0069628526 0.17487578 0.011636437
000210 8d fa 5a 3e 15 9d 64 3e d7 5d 8c 3e 61 7c f6 bd
       0.2138464 0.22325547 0.27415344 -0.12035442
000220 bb 53 3a bd 26 a8 70 3e 76 38 f5 3c 3b 3a f1 bd
       -0.045490008 0.23501644 0.02993415 -0.11778685
000230 d1 87 00 be 71 0e 47 3e 2f 90 b5 3d 26 3f d8 3d
       -0.1255181 0.19439103 0.088653915 0.105589196
000240 0d 26 99 3d 97 4f 69 3e 0d b7 f0 bd 40 1c e7 bd
       0.07477961 0.22784267 -0.11753664 -0.11284685
000250 91 2e 9d 3d d8 fc ef 3b 6f 61 11 3e 44 29 ad 3e
       0.076748975 0.0073238425 0.14197324 0.33820546
000260 ee d0 52 3e a2 7f 21 3d 9b fe f1 bd 9a ef 98 be
       0.20587513 0.03942836 -0.1181614 -0.298703
000270 ab e5 e3 3c 44 e8 9d bd 32 d6 a6 3e 1a 01 db bd
       0.027819475 -0.07710317 0.32585293 -0.106935695
000280 08 80 55 3e 72 10 c5 3d 8d 09 9b bc e6 da cb 3d
       0.20849621 0.09622277 -0.018925453 0.09953861
000290 66 d7 14 be 3a 72 6e be 1e f5 62 bc 75 a3 07 be
       -0.14535293 -0.23285761 -0.013852386 -0.13245948
0002a0 41 bb 12 be 37 51 38 be 33 f6 bd 3d 8a 59 5b 3e
       -0.14329244 -0.17999731 0.092754744 0.21420875
0002b0 10 8a 24 3e a8 2d 4b be 24 8d 76 be 7e 23 34 3d
       0.16068292 -0.19841635 -0.24077278 0.04397916
0002c0 6e 2c 25 be f7 89 dc bd 88 e5 81 3d 4d 56 41 3e
       -0.1613023 -0.10768502 0.06342608 0.18880577
0002d0 8f d8 c3 bd a1 7a 49 be 5b 4c 4a bd ca ce c9 3d
       -0.0956279 -0.19675685 -0.049389224 0.09853895
0002e0 ac 07 7c bd 6c b9 34 be 63 fa 48 3e fd 79 51 be
       -0.061530754 -0.17648858 0.19626765 -0.20456691
0002f0 87 aa a0 3d 60 b9 44 bd 32 5d 65 3c 0c 79 66 3e
       0.078450255 -0.04802835 0.01399927 0.22507113
000300 a4 53 9b be 72 b6 6d 3c e5 a2 e3 3c 0a 47 b6 be
       -0.3033725 0.01450883 0.027787635 -0.35601074
000310 0f 13 14 be f7 87 88 3e 62 45 b5 3e ac d3 8e bd
       -0.14460395 0.26666233 0.35404497 -0.06973967
000320 ec 4b ae 3e da 95 3f 3d 6c 8a 86 3c f6 1b a7 bd
       0.340423 0.04677377 0.016423427 -0.0815963
000330 59 f0 de 3d 3f f8 0c be 77 92 b1 3e 3c ba ba bb
       0.108856864 -0.13766573 0.34682056 -0.0056984704
000340 28 eb 80 3e 37 b9 a1 be 0a b1 ca 3d a6 b8 47 3e
       0.2517941 -0.3158662 0.09897049 0.19504032
000350 8b 00 a5 be c5 b0 19 be b0 ce 0e be 33 08 27 3e
       -0.32226977 -0.15008838 -0.13946033 0.16311722
000360 0c 12 cc be 1b 66 a3 3d ac 97 0f be e9 9c af bb
       -0.3985752 0.079784594 -0.14022702 -0.0053592813
000370 d1 9f d2 3d 57 32 8c bd a3 ad 4d 3e 72 5d 0f 3e
       0.10284389 -0.06845539 0.20085768 0.1400049
000380 4d 98 6a be c1 3c 8d 3e 30 f0 61 3e 7e 7c 66 3d
       -0.2290966 0.27585414 0.2206428 0.05627107
000390 41 7d de 3d 5b 7f a4 3e e4 33 01 bd bc 65 60 3e
       0.10863734 0.32128415 -0.031543627 0.21913809
0003a0 de 65 11 3e e3 5f 27 3e 0e c4 fd 3d 7d 6d 3d be
       0.14199015 0.16345172 0.1239091 -0.18498798
0003b0 b6 90 2b be 05 f6 2e be b6 2c b6 3d ff ec 58 be
       -0.16754422 -0.17086037 0.08895247 -0.21184157
0003c0 51 c8 09 be 7e 47 4f be ba 89 6a be f8 5e 2d 3e
       -0.13455321 -0.20242116 -0.22904101 0.16930759
0003d0 63 4c 34 3d 53 6c 79 be b9 c3 8d be 08 f6 cb 3d
       0.04401816 -0.24357729 -0.27688387 0.09959036
0003e0 81 13 96 be 89 89 3f be 66 07 43 3e 0b 4b 01 3e
       -0.29311755 -0.18704809 0.19045791 0.12626283
0003f0 49 01 28 3e 3f 1a 99 3d 36 23 3a 3d 8a ad 8a 3d
       0.1640674 0.07475709 0.045443736 0.06771381

h2h.bias f4 [16]
000000 00 90 45 bd 23 2d 4d 3e ab 2e 86 bb 60 99 5d 3e
       -0.048233032 0.2003675 -0.0040949187 0.21640539
000010 0e c1 9d 3d 21 61 b9 3d d3 3a 3c bb 3f 3f 1c be
       0.07702838 0.09051729 -0.0028721585 -0.15258501
000020 61 3d 55 bc 08 af 95 3d 25 c8 20 bd cb 45 74 bd
       -0.013015122 0.07308775 -0.039253373 -0.059636872
000030 82 8c 00 be 03 29 3b 3e 7d 0a 87 be f0 23 39 3e
       -0.125536 0.18277363 -0.2637519 0.18080115

h2o.weight f4 [2, 16]
000000 8f 3e fa 3e 54 10 12 bf 82 42 a3 be 68 9b b5 3e
       0.48875853 -0.57056165 -0.3188668 0.35470128
000010 26 10 38 be f7 a9 92 be a4 6b fd be d7 73 4b 3d
       -0.1797491 -0.28645298 -0.49496186 0.04967102
000020 d4 f6 b9 be 9a 40 10 bf 99 7d 89 3e ae 47 0f 3f
       -0.36321127 -0.56348574 0.26853636 0.5596875
000030 b2 d6 8c be af ab c4 3e 23 1b 2e bf 30 6e 11 3f
       -0.2750755 0.38412234 -0.6801016 0.5680876
000040 37 91 29 bf 1b 71 31 3f 22 44 10 3f ff 83 d9 be
       -0.66237205 0.6931321 0.5635396 -0.42483518
000050 58 30 0a 3f 1d a2 d0 3e 83 42 a1 3e 65 c5 83 be
       0.53980017 0.40748683 0.31496057 -0.25736538
000060 e1 b1 e1 3e c5 fe a9 3e 67 b3 b2 be f1 1d 82 be
       0.44081023 0.33202186 -0.34902498 -0.25413468
000070 20 8d c5 3e f3 ee f3 be 4e 2f 33 3f 80 c0 44 be
       0.38584232 -0.4764324 0.69994056 -0.19214058

h2o.bias f4 [2]
000000 dd 5b 38 3e 0f 21 f0 3d
       0.18003793 0.117250554
